2024-08-12 12:27:46,202 Conv1D block [0], with input_dim=512, out_dim=256
2024-08-12 12:27:46,207 Conv1D block [1], with input_dim=256, out_dim=256
2024-08-12 12:29:07,549 Conv1D block [0], with input_dim=512, out_dim=256
2024-08-12 12:29:07,552 Residual block with conv_block=Conv1DBlock(
  (conv1d): Conv1d(512, 256, kernel_size=(3,), stride=(1,), padding=(1,))
  (norm): Normalization(
    (norm): LayerNorm((256,), eps=1e-05, elementwise_affine=True)
  )
  (act_func): GELU(approximate='none')
), feature_block=MLPBlock(
  (mlp): Sequential(
    (0): Linear(in_features=256, out_features=128, bias=True)
    (1): GELU(approximate='none')
    (2): Linear(in_features=128, out_features=256, bias=True)
    (3): GELU(approximate='none')
  )
)
2024-08-12 12:29:07,555 Conv1D block [1], with input_dim=256, out_dim=256
2024-08-12 12:29:07,557 Residual block with conv_block=Conv1DBlock(
  (conv1d): Conv1d(256, 256, kernel_size=(3,), stride=(1,), padding=(1,))
  (norm): Normalization(
    (norm): LayerNorm((256,), eps=1e-05, elementwise_affine=True)
  )
  (act_func): GELU(approximate='none')
), feature_block=MLPBlock(
  (mlp): Sequential(
    (0): Linear(in_features=256, out_features=128, bias=True)
    (1): GELU(approximate='none')
    (2): Linear(in_features=128, out_features=256, bias=True)
    (3): GELU(approximate='none')
  )
)
2024-08-12 12:31:13,825 Conv1D block [0], with input_dim=512, out_dim=256
2024-08-12 12:31:51,623 Conv1D block [0], with input_dim=512, output_dim=256
2024-08-12 12:31:51,627 Residual block with conv_block=Conv1DBlock(
  (conv1d): Conv1d(512, 256, kernel_size=(3,), stride=(1,), padding=(1,))
  (norm): Normalization(
    (norm): LayerNorm((256,), eps=1e-05, elementwise_affine=True)
  )
  (act_func): GELU(approximate='none')
), feature_block=MLPBlock(
  (mlp): Sequential(
    (0): Linear(in_features=256, out_features=128, bias=True)
    (1): GELU(approximate='none')
    (2): Linear(in_features=128, out_features=256, bias=True)
    (3): GELU(approximate='none')
  )
)
2024-08-12 12:31:51,630 Conv1D block [1], with input_dim=256, output_dim=256
2024-08-12 12:31:51,632 Residual block with conv_block=Conv1DBlock(
  (conv1d): Conv1d(256, 256, kernel_size=(3,), stride=(1,), padding=(1,))
  (norm): Normalization(
    (norm): LayerNorm((256,), eps=1e-05, elementwise_affine=True)
  )
  (act_func): GELU(approximate='none')
), feature_block=MLPBlock(
  (mlp): Sequential(
    (0): Linear(in_features=256, out_features=128, bias=True)
    (1): GELU(approximate='none')
    (2): Linear(in_features=128, out_features=256, bias=True)
    (3): GELU(approximate='none')
  )
)
2024-08-12 12:32:22,845 Conv1D block [0], with input_dim=512, output_dim=256
2024-08-12 12:32:22,848 Residual block with conv_block=Conv1DBlock(
  (conv1d): Conv1d(512, 256, kernel_size=(3,), stride=(1,), padding=(1,))
  (norm): Normalization(
    (norm): LayerNorm((256,), eps=1e-05, elementwise_affine=True)
  )
  (act_func): GELU(approximate='none')
), feature_block=MLPBlock(
  (mlp): Sequential(
    (0): Linear(in_features=256, out_features=128, bias=True)
    (1): GELU(approximate='none')
    (2): Linear(in_features=128, out_features=256, bias=True)
    (3): GELU(approximate='none')
  )
)
2024-08-12 12:32:22,851 Conv1D block [1], with input_dim=256, output_dim=256
2024-08-12 12:32:22,852 Residual block with conv_block=Conv1DBlock(
  (conv1d): Conv1d(256, 256, kernel_size=(3,), stride=(1,), padding=(1,))
  (norm): Normalization(
    (norm): LayerNorm((256,), eps=1e-05, elementwise_affine=True)
  )
  (act_func): GELU(approximate='none')
), feature_block=MLPBlock(
  (mlp): Sequential(
    (0): Linear(in_features=256, out_features=128, bias=True)
    (1): GELU(approximate='none')
    (2): Linear(in_features=128, out_features=256, bias=True)
    (3): GELU(approximate='none')
  )
)
2024-08-12 12:33:33,245 Conv1D block [0], with input_dim=512, output_dim=64
2024-08-12 12:33:33,246 Residual block with conv_block=Conv1DBlock(
  (conv1d): Conv1d(512, 64, kernel_size=(3,), stride=(1,), padding=(1,))
  (norm): Normalization(
    (norm): BatchNorm1d(64, eps=1e-05, momentum=0.1, affine=True, track_running_stats=True)
  )
  (act_func): GELU(approximate='none')
), feature_block=MHABlock(
  (mha): MultiheadAttention(
    (out_proj): NonDynamicallyQuantizableLinear(in_features=64, out_features=64, bias=True)
  )
  (fc): Linear(in_features=64, out_features=64, bias=True)
  (act_func): GELU(approximate='none')
)
2024-08-12 12:33:33,264 Conv1D block [1], with input_dim=64, output_dim=64
2024-08-12 12:33:33,265 Residual block with conv_block=Conv1DBlock(
  (conv1d): Conv1d(64, 64, kernel_size=(3,), stride=(1,), padding=(1,))
  (norm): Normalization(
    (norm): BatchNorm1d(64, eps=1e-05, momentum=0.1, affine=True, track_running_stats=True)
  )
  (act_func): GELU(approximate='none')
), feature_block=MHABlock(
  (mha): MultiheadAttention(
    (out_proj): NonDynamicallyQuantizableLinear(in_features=64, out_features=64, bias=True)
  )
  (fc): Linear(in_features=64, out_features=64, bias=True)
  (act_func): GELU(approximate='none')
)
2024-08-12 12:33:33,484 Conv1D block [0], with input_dim=64, output_dim=256
2024-08-12 12:33:33,486 Residual block with conv_block=Conv1DBlock(
  (conv1d): Conv1d(64, 256, kernel_size=(3,), stride=(1,), padding=(1,))
  (norm): Normalization(
    (norm): BatchNorm1d(256, eps=1e-05, momentum=0.1, affine=True, track_running_stats=True)
  )
  (act_func): GELU(approximate='none')
), feature_block=MLPBlock(
  (mlp): Sequential(
    (0): Linear(in_features=256, out_features=128, bias=True)
    (1): GELU(approximate='none')
    (2): Linear(in_features=128, out_features=256, bias=True)
    (3): GELU(approximate='none')
  )
)
2024-08-12 12:33:33,504 Conv1D block [1], with input_dim=256, output_dim=256
2024-08-12 12:33:33,506 Residual block with conv_block=Conv1DBlock(
  (conv1d): Conv1d(256, 256, kernel_size=(3,), stride=(1,), padding=(1,))
  (norm): Normalization(
    (norm): BatchNorm1d(256, eps=1e-05, momentum=0.1, affine=True, track_running_stats=True)
  )
  (act_func): GELU(approximate='none')
), feature_block=MLPBlock(
  (mlp): Sequential(
    (0): Linear(in_features=256, out_features=128, bias=True)
    (1): GELU(approximate='none')
    (2): Linear(in_features=128, out_features=256, bias=True)
    (3): GELU(approximate='none')
  )
)
2024-08-12 12:33:33,508 Conv1D block [2], with input_dim=256, output_dim=256
2024-08-12 12:33:33,509 Residual block with conv_block=Conv1DBlock(
  (conv1d): Conv1d(256, 256, kernel_size=(3,), stride=(1,), padding=(1,))
  (norm): Normalization(
    (norm): BatchNorm1d(256, eps=1e-05, momentum=0.1, affine=True, track_running_stats=True)
  )
  (act_func): GELU(approximate='none')
), feature_block=MLPBlock(
  (mlp): Sequential(
    (0): Linear(in_features=256, out_features=128, bias=True)
    (1): GELU(approximate='none')
    (2): Linear(in_features=128, out_features=256, bias=True)
    (3): GELU(approximate='none')
  )
)
2024-08-12 12:33:33,511 Conv1D block [3], with input_dim=256, output_dim=256
2024-08-12 12:33:33,512 Residual block with conv_block=Conv1DBlock(
  (conv1d): Conv1d(256, 256, kernel_size=(3,), stride=(1,), padding=(1,))
  (norm): Normalization(
    (norm): BatchNorm1d(256, eps=1e-05, momentum=0.1, affine=True, track_running_stats=True)
  )
  (act_func): GELU(approximate='none')
), feature_block=MLPBlock(
  (mlp): Sequential(
    (0): Linear(in_features=256, out_features=128, bias=True)
    (1): GELU(approximate='none')
    (2): Linear(in_features=128, out_features=256, bias=True)
    (3): GELU(approximate='none')
  )
)
2024-08-12 12:33:33,514 Conv1D block [4], with input_dim=256, output_dim=256
2024-08-12 12:33:33,532 Residual block with conv_block=Conv1DBlock(
  (conv1d): Conv1d(256, 256, kernel_size=(3,), stride=(1,), padding=(1,))
  (norm): Normalization(
    (norm): BatchNorm1d(256, eps=1e-05, momentum=0.1, affine=True, track_running_stats=True)
  )
  (act_func): GELU(approximate='none')
), feature_block=MLPBlock(
  (mlp): Sequential(
    (0): Linear(in_features=256, out_features=128, bias=True)
    (1): GELU(approximate='none')
    (2): Linear(in_features=128, out_features=256, bias=True)
    (3): GELU(approximate='none')
  )
)
2024-08-12 12:33:33,534 Conv1D block [5], with input_dim=256, output_dim=256
2024-08-12 12:33:33,535 Residual block with conv_block=Conv1DBlock(
  (conv1d): Conv1d(256, 256, kernel_size=(3,), stride=(1,), padding=(1,))
  (norm): Normalization(
    (norm): BatchNorm1d(256, eps=1e-05, momentum=0.1, affine=True, track_running_stats=True)
  )
  (act_func): GELU(approximate='none')
), feature_block=MLPBlock(
  (mlp): Sequential(
    (0): Linear(in_features=256, out_features=128, bias=True)
    (1): GELU(approximate='none')
    (2): Linear(in_features=128, out_features=256, bias=True)
    (3): GELU(approximate='none')
  )
)
2024-08-12 12:34:22,846 Conv1D block [0], with input_dim=512, output_dim=64
2024-08-12 12:34:22,855 Residual block with conv_block=Conv1DBlock(
  (conv1d): Conv1d(512, 64, kernel_size=(3,), stride=(1,), padding=(1,))
  (norm): Normalization(
    (norm): BatchNorm1d(64, eps=1e-05, momentum=0.1, affine=True, track_running_stats=True)
  )
  (act_func): GELU(approximate='none')
), feature_block=MHABlock(
  (mha): MultiheadAttention(
    (out_proj): NonDynamicallyQuantizableLinear(in_features=64, out_features=64, bias=True)
  )
  (fc): Linear(in_features=64, out_features=64, bias=True)
  (act_func): GELU(approximate='none')
)
2024-08-12 12:34:22,858 Conv1D block [1], with input_dim=64, output_dim=64
2024-08-12 12:34:22,859 Residual block with conv_block=Conv1DBlock(
  (conv1d): Conv1d(64, 64, kernel_size=(3,), stride=(1,), padding=(1,))
  (norm): Normalization(
    (norm): BatchNorm1d(64, eps=1e-05, momentum=0.1, affine=True, track_running_stats=True)
  )
  (act_func): GELU(approximate='none')
), feature_block=MHABlock(
  (mha): MultiheadAttention(
    (out_proj): NonDynamicallyQuantizableLinear(in_features=64, out_features=64, bias=True)
  )
  (fc): Linear(in_features=64, out_features=64, bias=True)
  (act_func): GELU(approximate='none')
)
2024-08-12 12:34:23,421 Conv1D block [0], with input_dim=64, output_dim=256
2024-08-12 12:34:23,423 Residual block with conv_block=Conv1DBlock(
  (conv1d): Conv1d(64, 256, kernel_size=(3,), stride=(1,), padding=(1,))
  (norm): Normalization(
    (norm): BatchNorm1d(256, eps=1e-05, momentum=0.1, affine=True, track_running_stats=True)
  )
  (act_func): GELU(approximate='none')
), feature_block=MLPBlock(
  (mlp): Sequential(
    (0): Linear(in_features=256, out_features=128, bias=True)
    (1): GELU(approximate='none')
    (2): Linear(in_features=128, out_features=256, bias=True)
    (3): GELU(approximate='none')
  )
)
2024-08-12 12:34:23,424 Conv1D block [1], with input_dim=256, output_dim=256
2024-08-12 12:34:23,426 Residual block with conv_block=Conv1DBlock(
  (conv1d): Conv1d(256, 256, kernel_size=(3,), stride=(1,), padding=(1,))
  (norm): Normalization(
    (norm): BatchNorm1d(256, eps=1e-05, momentum=0.1, affine=True, track_running_stats=True)
  )
  (act_func): GELU(approximate='none')
), feature_block=MLPBlock(
  (mlp): Sequential(
    (0): Linear(in_features=256, out_features=128, bias=True)
    (1): GELU(approximate='none')
    (2): Linear(in_features=128, out_features=256, bias=True)
    (3): GELU(approximate='none')
  )
)
2024-08-12 12:34:23,427 Conv1D block [2], with input_dim=256, output_dim=256
2024-08-12 12:34:23,428 Residual block with conv_block=Conv1DBlock(
  (conv1d): Conv1d(256, 256, kernel_size=(3,), stride=(1,), padding=(1,))
  (norm): Normalization(
    (norm): BatchNorm1d(256, eps=1e-05, momentum=0.1, affine=True, track_running_stats=True)
  )
  (act_func): GELU(approximate='none')
), feature_block=MLPBlock(
  (mlp): Sequential(
    (0): Linear(in_features=256, out_features=128, bias=True)
    (1): GELU(approximate='none')
    (2): Linear(in_features=128, out_features=256, bias=True)
    (3): GELU(approximate='none')
  )
)
2024-08-12 12:34:23,430 Conv1D block [3], with input_dim=256, output_dim=256
2024-08-12 12:34:23,431 Residual block with conv_block=Conv1DBlock(
  (conv1d): Conv1d(256, 256, kernel_size=(3,), stride=(1,), padding=(1,))
  (norm): Normalization(
    (norm): BatchNorm1d(256, eps=1e-05, momentum=0.1, affine=True, track_running_stats=True)
  )
  (act_func): GELU(approximate='none')
), feature_block=MLPBlock(
  (mlp): Sequential(
    (0): Linear(in_features=256, out_features=128, bias=True)
    (1): GELU(approximate='none')
    (2): Linear(in_features=128, out_features=256, bias=True)
    (3): GELU(approximate='none')
  )
)
2024-08-12 12:34:23,433 Conv1D block [4], with input_dim=256, output_dim=256
2024-08-12 12:34:23,435 Residual block with conv_block=Conv1DBlock(
  (conv1d): Conv1d(256, 256, kernel_size=(3,), stride=(1,), padding=(1,))
  (norm): Normalization(
    (norm): BatchNorm1d(256, eps=1e-05, momentum=0.1, affine=True, track_running_stats=True)
  )
  (act_func): GELU(approximate='none')
), feature_block=MLPBlock(
  (mlp): Sequential(
    (0): Linear(in_features=256, out_features=128, bias=True)
    (1): GELU(approximate='none')
    (2): Linear(in_features=128, out_features=256, bias=True)
    (3): GELU(approximate='none')
  )
)
2024-08-12 12:34:23,437 Conv1D block [5], with input_dim=256, output_dim=256
2024-08-12 12:34:23,439 Residual block with conv_block=Conv1DBlock(
  (conv1d): Conv1d(256, 256, kernel_size=(3,), stride=(1,), padding=(1,))
  (norm): Normalization(
    (norm): BatchNorm1d(256, eps=1e-05, momentum=0.1, affine=True, track_running_stats=True)
  )
  (act_func): GELU(approximate='none')
), feature_block=MLPBlock(
  (mlp): Sequential(
    (0): Linear(in_features=256, out_features=128, bias=True)
    (1): GELU(approximate='none')
    (2): Linear(in_features=128, out_features=256, bias=True)
    (3): GELU(approximate='none')
  )
)
2024-08-12 12:34:27,540 Conv1D block [0], with input_dim=512, output_dim=64
2024-08-12 12:34:27,541 Residual block with conv_block=Conv1DBlock(
  (conv1d): Conv1d(512, 64, kernel_size=(3,), stride=(1,), padding=(1,))
  (norm): Normalization(
    (norm): BatchNorm1d(64, eps=1e-05, momentum=0.1, affine=True, track_running_stats=True)
  )
  (act_func): GELU(approximate='none')
), feature_block=MHABlock(
  (mha): MultiheadAttention(
    (out_proj): NonDynamicallyQuantizableLinear(in_features=64, out_features=64, bias=True)
  )
  (fc): Linear(in_features=64, out_features=64, bias=True)
  (act_func): GELU(approximate='none')
)
2024-08-12 12:34:27,541 Conv1D block [1], with input_dim=64, output_dim=64
2024-08-12 12:34:27,542 Residual block with conv_block=Conv1DBlock(
  (conv1d): Conv1d(64, 64, kernel_size=(3,), stride=(1,), padding=(1,))
  (norm): Normalization(
    (norm): BatchNorm1d(64, eps=1e-05, momentum=0.1, affine=True, track_running_stats=True)
  )
  (act_func): GELU(approximate='none')
), feature_block=MHABlock(
  (mha): MultiheadAttention(
    (out_proj): NonDynamicallyQuantizableLinear(in_features=64, out_features=64, bias=True)
  )
  (fc): Linear(in_features=64, out_features=64, bias=True)
  (act_func): GELU(approximate='none')
)
2024-08-12 12:34:27,542 Conv1D block [2], with input_dim=64, output_dim=64
2024-08-12 12:34:27,543 Residual block with conv_block=Conv1DBlock(
  (conv1d): Conv1d(64, 64, kernel_size=(3,), stride=(1,), padding=(1,))
  (norm): Normalization(
    (norm): BatchNorm1d(64, eps=1e-05, momentum=0.1, affine=True, track_running_stats=True)
  )
  (act_func): GELU(approximate='none')
), feature_block=MHABlock(
  (mha): MultiheadAttention(
    (out_proj): NonDynamicallyQuantizableLinear(in_features=64, out_features=64, bias=True)
  )
  (fc): Linear(in_features=64, out_features=64, bias=True)
  (act_func): GELU(approximate='none')
)
2024-08-12 12:34:27,543 Conv1D block [3], with input_dim=64, output_dim=64
2024-08-12 12:34:27,544 Residual block with conv_block=Conv1DBlock(
  (conv1d): Conv1d(64, 64, kernel_size=(3,), stride=(1,), padding=(1,))
  (norm): Normalization(
    (norm): BatchNorm1d(64, eps=1e-05, momentum=0.1, affine=True, track_running_stats=True)
  )
  (act_func): GELU(approximate='none')
), feature_block=MHABlock(
  (mha): MultiheadAttention(
    (out_proj): NonDynamicallyQuantizableLinear(in_features=64, out_features=64, bias=True)
  )
  (fc): Linear(in_features=64, out_features=64, bias=True)
  (act_func): GELU(approximate='none')
)
2024-08-12 12:34:27,544 Conv1D block [4], with input_dim=64, output_dim=64
2024-08-12 12:34:27,545 Residual block with conv_block=Conv1DBlock(
  (conv1d): Conv1d(64, 64, kernel_size=(3,), stride=(1,), padding=(1,))
  (norm): Normalization(
    (norm): BatchNorm1d(64, eps=1e-05, momentum=0.1, affine=True, track_running_stats=True)
  )
  (act_func): GELU(approximate='none')
), feature_block=MHABlock(
  (mha): MultiheadAttention(
    (out_proj): NonDynamicallyQuantizableLinear(in_features=64, out_features=64, bias=True)
  )
  (fc): Linear(in_features=64, out_features=64, bias=True)
  (act_func): GELU(approximate='none')
)
2024-08-12 12:34:27,545 Conv1D block [5], with input_dim=64, output_dim=64
2024-08-12 12:34:27,545 Residual block with conv_block=Conv1DBlock(
  (conv1d): Conv1d(64, 64, kernel_size=(3,), stride=(1,), padding=(1,))
  (norm): Normalization(
    (norm): BatchNorm1d(64, eps=1e-05, momentum=0.1, affine=True, track_running_stats=True)
  )
  (act_func): GELU(approximate='none')
), feature_block=MHABlock(
  (mha): MultiheadAttention(
    (out_proj): NonDynamicallyQuantizableLinear(in_features=64, out_features=64, bias=True)
  )
  (fc): Linear(in_features=64, out_features=64, bias=True)
  (act_func): GELU(approximate='none')
)
2024-08-12 12:34:28,768 Conv1D block [0], with input_dim=64, output_dim=256
2024-08-12 12:34:28,770 Residual block with conv_block=Conv1DBlock(
  (conv1d): Conv1d(64, 256, kernel_size=(3,), stride=(1,), padding=(1,))
  (norm): Normalization(
    (norm): BatchNorm1d(256, eps=1e-05, momentum=0.1, affine=True, track_running_stats=True)
  )
  (act_func): GELU(approximate='none')
), feature_block=MLPBlock(
  (mlp): Sequential(
    (0): Linear(in_features=256, out_features=128, bias=True)
    (1): GELU(approximate='none')
    (2): Linear(in_features=128, out_features=256, bias=True)
    (3): GELU(approximate='none')
  )
)
2024-08-12 12:34:28,772 Conv1D block [1], with input_dim=256, output_dim=256
2024-08-12 12:34:28,773 Residual block with conv_block=Conv1DBlock(
  (conv1d): Conv1d(256, 256, kernel_size=(3,), stride=(1,), padding=(1,))
  (norm): Normalization(
    (norm): BatchNorm1d(256, eps=1e-05, momentum=0.1, affine=True, track_running_stats=True)
  )
  (act_func): GELU(approximate='none')
), feature_block=MLPBlock(
  (mlp): Sequential(
    (0): Linear(in_features=256, out_features=128, bias=True)
    (1): GELU(approximate='none')
    (2): Linear(in_features=128, out_features=256, bias=True)
    (3): GELU(approximate='none')
  )
)
2024-08-12 12:34:28,775 Conv1D block [2], with input_dim=256, output_dim=256
2024-08-12 12:34:28,776 Residual block with conv_block=Conv1DBlock(
  (conv1d): Conv1d(256, 256, kernel_size=(3,), stride=(1,), padding=(1,))
  (norm): Normalization(
    (norm): BatchNorm1d(256, eps=1e-05, momentum=0.1, affine=True, track_running_stats=True)
  )
  (act_func): GELU(approximate='none')
), feature_block=MLPBlock(
  (mlp): Sequential(
    (0): Linear(in_features=256, out_features=128, bias=True)
    (1): GELU(approximate='none')
    (2): Linear(in_features=128, out_features=256, bias=True)
    (3): GELU(approximate='none')
  )
)
2024-08-12 12:34:28,778 Conv1D block [3], with input_dim=256, output_dim=256
2024-08-12 12:34:28,779 Residual block with conv_block=Conv1DBlock(
  (conv1d): Conv1d(256, 256, kernel_size=(3,), stride=(1,), padding=(1,))
  (norm): Normalization(
    (norm): BatchNorm1d(256, eps=1e-05, momentum=0.1, affine=True, track_running_stats=True)
  )
  (act_func): GELU(approximate='none')
), feature_block=MLPBlock(
  (mlp): Sequential(
    (0): Linear(in_features=256, out_features=128, bias=True)
    (1): GELU(approximate='none')
    (2): Linear(in_features=128, out_features=256, bias=True)
    (3): GELU(approximate='none')
  )
)
2024-08-12 12:34:28,782 Conv1D block [4], with input_dim=256, output_dim=256
2024-08-12 12:34:28,783 Residual block with conv_block=Conv1DBlock(
  (conv1d): Conv1d(256, 256, kernel_size=(3,), stride=(1,), padding=(1,))
  (norm): Normalization(
    (norm): BatchNorm1d(256, eps=1e-05, momentum=0.1, affine=True, track_running_stats=True)
  )
  (act_func): GELU(approximate='none')
), feature_block=MLPBlock(
  (mlp): Sequential(
    (0): Linear(in_features=256, out_features=128, bias=True)
    (1): GELU(approximate='none')
    (2): Linear(in_features=128, out_features=256, bias=True)
    (3): GELU(approximate='none')
  )
)
2024-08-12 12:34:28,784 Conv1D block [5], with input_dim=256, output_dim=256
2024-08-12 12:34:28,785 Residual block with conv_block=Conv1DBlock(
  (conv1d): Conv1d(256, 256, kernel_size=(3,), stride=(1,), padding=(1,))
  (norm): Normalization(
    (norm): BatchNorm1d(256, eps=1e-05, momentum=0.1, affine=True, track_running_stats=True)
  )
  (act_func): GELU(approximate='none')
), feature_block=MLPBlock(
  (mlp): Sequential(
    (0): Linear(in_features=256, out_features=128, bias=True)
    (1): GELU(approximate='none')
    (2): Linear(in_features=128, out_features=256, bias=True)
    (3): GELU(approximate='none')
  )
)
2024-08-12 12:35:10,774 Conv1D block [0], with input_dim=64, output_dim=256
2024-08-12 12:35:10,776 Residual block with conv_block=Conv1DBlock(
  (conv1d): Conv1d(64, 256, kernel_size=(3,), stride=(1,), padding=(1,))
  (norm): Normalization(
    (norm): BatchNorm1d(256, eps=1e-05, momentum=0.1, affine=True, track_running_stats=True)
  )
  (act_func): GELU(approximate='none')
), feature_block=MLPBlock(
  (mlp): Sequential(
    (0): Linear(in_features=256, out_features=128, bias=True)
    (1): GELU(approximate='none')
    (2): Linear(in_features=128, out_features=256, bias=True)
    (3): GELU(approximate='none')
  )
)
2024-08-12 12:35:10,778 Conv1D block [1], with input_dim=256, output_dim=256
2024-08-12 12:35:10,780 Residual block with conv_block=Conv1DBlock(
  (conv1d): Conv1d(256, 256, kernel_size=(3,), stride=(1,), padding=(1,))
  (norm): Normalization(
    (norm): BatchNorm1d(256, eps=1e-05, momentum=0.1, affine=True, track_running_stats=True)
  )
  (act_func): GELU(approximate='none')
), feature_block=MLPBlock(
  (mlp): Sequential(
    (0): Linear(in_features=256, out_features=128, bias=True)
    (1): GELU(approximate='none')
    (2): Linear(in_features=128, out_features=256, bias=True)
    (3): GELU(approximate='none')
  )
)
2024-08-12 12:35:10,782 Conv1D block [2], with input_dim=256, output_dim=256
2024-08-12 12:35:10,783 Residual block with conv_block=Conv1DBlock(
  (conv1d): Conv1d(256, 256, kernel_size=(3,), stride=(1,), padding=(1,))
  (norm): Normalization(
    (norm): BatchNorm1d(256, eps=1e-05, momentum=0.1, affine=True, track_running_stats=True)
  )
  (act_func): GELU(approximate='none')
), feature_block=MLPBlock(
  (mlp): Sequential(
    (0): Linear(in_features=256, out_features=128, bias=True)
    (1): GELU(approximate='none')
    (2): Linear(in_features=128, out_features=256, bias=True)
    (3): GELU(approximate='none')
  )
)
2024-08-12 12:35:10,785 Conv1D block [3], with input_dim=256, output_dim=256
2024-08-12 12:35:10,787 Residual block with conv_block=Conv1DBlock(
  (conv1d): Conv1d(256, 256, kernel_size=(3,), stride=(1,), padding=(1,))
  (norm): Normalization(
    (norm): BatchNorm1d(256, eps=1e-05, momentum=0.1, affine=True, track_running_stats=True)
  )
  (act_func): GELU(approximate='none')
), feature_block=MLPBlock(
  (mlp): Sequential(
    (0): Linear(in_features=256, out_features=128, bias=True)
    (1): GELU(approximate='none')
    (2): Linear(in_features=128, out_features=256, bias=True)
    (3): GELU(approximate='none')
  )
)
2024-08-12 12:35:10,790 Conv1D block [4], with input_dim=256, output_dim=256
2024-08-12 12:35:10,791 Residual block with conv_block=Conv1DBlock(
  (conv1d): Conv1d(256, 256, kernel_size=(3,), stride=(1,), padding=(1,))
  (norm): Normalization(
    (norm): BatchNorm1d(256, eps=1e-05, momentum=0.1, affine=True, track_running_stats=True)
  )
  (act_func): GELU(approximate='none')
), feature_block=MLPBlock(
  (mlp): Sequential(
    (0): Linear(in_features=256, out_features=128, bias=True)
    (1): GELU(approximate='none')
    (2): Linear(in_features=128, out_features=256, bias=True)
    (3): GELU(approximate='none')
  )
)
2024-08-12 12:35:10,793 Conv1D block [5], with input_dim=256, output_dim=256
2024-08-12 12:35:10,794 Residual block with conv_block=Conv1DBlock(
  (conv1d): Conv1d(256, 256, kernel_size=(3,), stride=(1,), padding=(1,))
  (norm): Normalization(
    (norm): BatchNorm1d(256, eps=1e-05, momentum=0.1, affine=True, track_running_stats=True)
  )
  (act_func): GELU(approximate='none')
), feature_block=MLPBlock(
  (mlp): Sequential(
    (0): Linear(in_features=256, out_features=128, bias=True)
    (1): GELU(approximate='none')
    (2): Linear(in_features=128, out_features=256, bias=True)
    (3): GELU(approximate='none')
  )
)
2024-08-12 12:35:11,736 Conv1D block [0], with input_dim=512, output_dim=64
2024-08-12 12:35:11,737 Residual block with conv_block=Conv1DBlock(
  (conv1d): Conv1d(512, 64, kernel_size=(3,), stride=(1,), padding=(1,))
  (norm): Normalization(
    (norm): BatchNorm1d(64, eps=1e-05, momentum=0.1, affine=True, track_running_stats=True)
  )
  (act_func): GELU(approximate='none')
), feature_block=MHABlock(
  (mha): MultiheadAttention(
    (out_proj): NonDynamicallyQuantizableLinear(in_features=64, out_features=64, bias=True)
  )
  (fc): Linear(in_features=64, out_features=64, bias=True)
  (act_func): GELU(approximate='none')
)
2024-08-12 12:35:11,737 Conv1D block [1], with input_dim=64, output_dim=64
2024-08-12 12:35:11,738 Residual block with conv_block=Conv1DBlock(
  (conv1d): Conv1d(64, 64, kernel_size=(3,), stride=(1,), padding=(1,))
  (norm): Normalization(
    (norm): BatchNorm1d(64, eps=1e-05, momentum=0.1, affine=True, track_running_stats=True)
  )
  (act_func): GELU(approximate='none')
), feature_block=MHABlock(
  (mha): MultiheadAttention(
    (out_proj): NonDynamicallyQuantizableLinear(in_features=64, out_features=64, bias=True)
  )
  (fc): Linear(in_features=64, out_features=64, bias=True)
  (act_func): GELU(approximate='none')
)
2024-08-12 12:35:11,738 Conv1D block [2], with input_dim=64, output_dim=64
2024-08-12 12:35:11,739 Residual block with conv_block=Conv1DBlock(
  (conv1d): Conv1d(64, 64, kernel_size=(3,), stride=(1,), padding=(1,))
  (norm): Normalization(
    (norm): BatchNorm1d(64, eps=1e-05, momentum=0.1, affine=True, track_running_stats=True)
  )
  (act_func): GELU(approximate='none')
), feature_block=MHABlock(
  (mha): MultiheadAttention(
    (out_proj): NonDynamicallyQuantizableLinear(in_features=64, out_features=64, bias=True)
  )
  (fc): Linear(in_features=64, out_features=64, bias=True)
  (act_func): GELU(approximate='none')
)
2024-08-12 12:35:11,740 Conv1D block [3], with input_dim=64, output_dim=64
2024-08-12 12:35:11,740 Residual block with conv_block=Conv1DBlock(
  (conv1d): Conv1d(64, 64, kernel_size=(3,), stride=(1,), padding=(1,))
  (norm): Normalization(
    (norm): BatchNorm1d(64, eps=1e-05, momentum=0.1, affine=True, track_running_stats=True)
  )
  (act_func): GELU(approximate='none')
), feature_block=MHABlock(
  (mha): MultiheadAttention(
    (out_proj): NonDynamicallyQuantizableLinear(in_features=64, out_features=64, bias=True)
  )
  (fc): Linear(in_features=64, out_features=64, bias=True)
  (act_func): GELU(approximate='none')
)
2024-08-12 12:35:11,741 Conv1D block [4], with input_dim=64, output_dim=64
2024-08-12 12:35:11,742 Residual block with conv_block=Conv1DBlock(
  (conv1d): Conv1d(64, 64, kernel_size=(3,), stride=(1,), padding=(1,))
  (norm): Normalization(
    (norm): BatchNorm1d(64, eps=1e-05, momentum=0.1, affine=True, track_running_stats=True)
  )
  (act_func): GELU(approximate='none')
), feature_block=MHABlock(
  (mha): MultiheadAttention(
    (out_proj): NonDynamicallyQuantizableLinear(in_features=64, out_features=64, bias=True)
  )
  (fc): Linear(in_features=64, out_features=64, bias=True)
  (act_func): GELU(approximate='none')
)
2024-08-12 12:35:11,742 Conv1D block [5], with input_dim=64, output_dim=64
2024-08-12 12:35:11,743 Residual block with conv_block=Conv1DBlock(
  (conv1d): Conv1d(64, 64, kernel_size=(3,), stride=(1,), padding=(1,))
  (norm): Normalization(
    (norm): BatchNorm1d(64, eps=1e-05, momentum=0.1, affine=True, track_running_stats=True)
  )
  (act_func): GELU(approximate='none')
), feature_block=MHABlock(
  (mha): MultiheadAttention(
    (out_proj): NonDynamicallyQuantizableLinear(in_features=64, out_features=64, bias=True)
  )
  (fc): Linear(in_features=64, out_features=64, bias=True)
  (act_func): GELU(approximate='none')
)
2024-08-12 12:35:16,117 Conv1D block [0], with input_dim=512, output_dim=256
2024-08-12 12:35:16,124 Residual block with conv_block=Conv1DBlock(
  (conv1d): Conv1d(512, 256, kernel_size=(3,), stride=(1,), padding=(1,))
  (norm): Normalization(
    (norm): BatchNorm1d(256, eps=1e-05, momentum=0.1, affine=True, track_running_stats=True)
  )
  (act_func): GELU(approximate='none')
), feature_block=MHABlock(
  (mha): MultiheadAttention(
    (out_proj): NonDynamicallyQuantizableLinear(in_features=256, out_features=256, bias=True)
  )
  (fc): Linear(in_features=256, out_features=256, bias=True)
  (act_func): GELU(approximate='none')
)
2024-08-12 12:35:16,126 Conv1D block [1], with input_dim=256, output_dim=256
2024-08-12 12:35:16,130 Residual block with conv_block=Conv1DBlock(
  (conv1d): Conv1d(256, 256, kernel_size=(3,), stride=(1,), padding=(1,))
  (norm): Normalization(
    (norm): BatchNorm1d(256, eps=1e-05, momentum=0.1, affine=True, track_running_stats=True)
  )
  (act_func): GELU(approximate='none')
), feature_block=MHABlock(
  (mha): MultiheadAttention(
    (out_proj): NonDynamicallyQuantizableLinear(in_features=256, out_features=256, bias=True)
  )
  (fc): Linear(in_features=256, out_features=256, bias=True)
  (act_func): GELU(approximate='none')
)
2024-08-12 12:35:16,133 Conv1D block [2], with input_dim=256, output_dim=256
2024-08-12 12:35:16,137 Residual block with conv_block=Conv1DBlock(
  (conv1d): Conv1d(256, 256, kernel_size=(3,), stride=(1,), padding=(1,))
  (norm): Normalization(
    (norm): BatchNorm1d(256, eps=1e-05, momentum=0.1, affine=True, track_running_stats=True)
  )
  (act_func): GELU(approximate='none')
), feature_block=MHABlock(
  (mha): MultiheadAttention(
    (out_proj): NonDynamicallyQuantizableLinear(in_features=256, out_features=256, bias=True)
  )
  (fc): Linear(in_features=256, out_features=256, bias=True)
  (act_func): GELU(approximate='none')
)
2024-08-12 12:35:16,139 Conv1D block [3], with input_dim=256, output_dim=256
2024-08-12 12:35:16,143 Residual block with conv_block=Conv1DBlock(
  (conv1d): Conv1d(256, 256, kernel_size=(3,), stride=(1,), padding=(1,))
  (norm): Normalization(
    (norm): BatchNorm1d(256, eps=1e-05, momentum=0.1, affine=True, track_running_stats=True)
  )
  (act_func): GELU(approximate='none')
), feature_block=MHABlock(
  (mha): MultiheadAttention(
    (out_proj): NonDynamicallyQuantizableLinear(in_features=256, out_features=256, bias=True)
  )
  (fc): Linear(in_features=256, out_features=256, bias=True)
  (act_func): GELU(approximate='none')
)
2024-08-12 12:35:16,145 Conv1D block [4], with input_dim=256, output_dim=256
2024-08-12 12:35:16,149 Residual block with conv_block=Conv1DBlock(
  (conv1d): Conv1d(256, 256, kernel_size=(3,), stride=(1,), padding=(1,))
  (norm): Normalization(
    (norm): BatchNorm1d(256, eps=1e-05, momentum=0.1, affine=True, track_running_stats=True)
  )
  (act_func): GELU(approximate='none')
), feature_block=MHABlock(
  (mha): MultiheadAttention(
    (out_proj): NonDynamicallyQuantizableLinear(in_features=256, out_features=256, bias=True)
  )
  (fc): Linear(in_features=256, out_features=256, bias=True)
  (act_func): GELU(approximate='none')
)
2024-08-12 12:35:16,152 Conv1D block [5], with input_dim=256, output_dim=256
2024-08-12 12:35:16,156 Residual block with conv_block=Conv1DBlock(
  (conv1d): Conv1d(256, 256, kernel_size=(3,), stride=(1,), padding=(1,))
  (norm): Normalization(
    (norm): BatchNorm1d(256, eps=1e-05, momentum=0.1, affine=True, track_running_stats=True)
  )
  (act_func): GELU(approximate='none')
), feature_block=MHABlock(
  (mha): MultiheadAttention(
    (out_proj): NonDynamicallyQuantizableLinear(in_features=256, out_features=256, bias=True)
  )
  (fc): Linear(in_features=256, out_features=256, bias=True)
  (act_func): GELU(approximate='none')
)
2024-08-12 12:35:17,038 Conv1D block [0], with input_dim=512, output_dim=256
2024-08-12 12:35:17,043 Residual block with conv_block=Conv1DBlock(
  (conv1d): Conv1d(512, 256, kernel_size=(3,), stride=(1,), padding=(1,))
  (norm): Normalization(
    (norm): BatchNorm1d(256, eps=1e-05, momentum=0.1, affine=True, track_running_stats=True)
  )
  (act_func): GELU(approximate='none')
), feature_block=MHABlock(
  (mha): MultiheadAttention(
    (out_proj): NonDynamicallyQuantizableLinear(in_features=256, out_features=256, bias=True)
  )
  (fc): Linear(in_features=256, out_features=256, bias=True)
  (act_func): GELU(approximate='none')
)
2024-08-12 12:35:17,045 Conv1D block [1], with input_dim=256, output_dim=256
2024-08-12 12:35:17,048 Residual block with conv_block=Conv1DBlock(
  (conv1d): Conv1d(256, 256, kernel_size=(3,), stride=(1,), padding=(1,))
  (norm): Normalization(
    (norm): BatchNorm1d(256, eps=1e-05, momentum=0.1, affine=True, track_running_stats=True)
  )
  (act_func): GELU(approximate='none')
), feature_block=MHABlock(
  (mha): MultiheadAttention(
    (out_proj): NonDynamicallyQuantizableLinear(in_features=256, out_features=256, bias=True)
  )
  (fc): Linear(in_features=256, out_features=256, bias=True)
  (act_func): GELU(approximate='none')
)
2024-08-12 12:35:17,050 Conv1D block [2], with input_dim=256, output_dim=256
2024-08-12 12:35:17,053 Residual block with conv_block=Conv1DBlock(
  (conv1d): Conv1d(256, 256, kernel_size=(3,), stride=(1,), padding=(1,))
  (norm): Normalization(
    (norm): BatchNorm1d(256, eps=1e-05, momentum=0.1, affine=True, track_running_stats=True)
  )
  (act_func): GELU(approximate='none')
), feature_block=MHABlock(
  (mha): MultiheadAttention(
    (out_proj): NonDynamicallyQuantizableLinear(in_features=256, out_features=256, bias=True)
  )
  (fc): Linear(in_features=256, out_features=256, bias=True)
  (act_func): GELU(approximate='none')
)
2024-08-12 12:35:17,055 Conv1D block [3], with input_dim=256, output_dim=256
2024-08-12 12:35:17,058 Residual block with conv_block=Conv1DBlock(
  (conv1d): Conv1d(256, 256, kernel_size=(3,), stride=(1,), padding=(1,))
  (norm): Normalization(
    (norm): BatchNorm1d(256, eps=1e-05, momentum=0.1, affine=True, track_running_stats=True)
  )
  (act_func): GELU(approximate='none')
), feature_block=MHABlock(
  (mha): MultiheadAttention(
    (out_proj): NonDynamicallyQuantizableLinear(in_features=256, out_features=256, bias=True)
  )
  (fc): Linear(in_features=256, out_features=256, bias=True)
  (act_func): GELU(approximate='none')
)
2024-08-12 12:35:17,060 Conv1D block [4], with input_dim=256, output_dim=256
2024-08-12 12:35:17,063 Residual block with conv_block=Conv1DBlock(
  (conv1d): Conv1d(256, 256, kernel_size=(3,), stride=(1,), padding=(1,))
  (norm): Normalization(
    (norm): BatchNorm1d(256, eps=1e-05, momentum=0.1, affine=True, track_running_stats=True)
  )
  (act_func): GELU(approximate='none')
), feature_block=MHABlock(
  (mha): MultiheadAttention(
    (out_proj): NonDynamicallyQuantizableLinear(in_features=256, out_features=256, bias=True)
  )
  (fc): Linear(in_features=256, out_features=256, bias=True)
  (act_func): GELU(approximate='none')
)
2024-08-12 12:35:17,064 Conv1D block [5], with input_dim=256, output_dim=256
2024-08-12 12:35:17,068 Residual block with conv_block=Conv1DBlock(
  (conv1d): Conv1d(256, 256, kernel_size=(3,), stride=(1,), padding=(1,))
  (norm): Normalization(
    (norm): BatchNorm1d(256, eps=1e-05, momentum=0.1, affine=True, track_running_stats=True)
  )
  (act_func): GELU(approximate='none')
), feature_block=MHABlock(
  (mha): MultiheadAttention(
    (out_proj): NonDynamicallyQuantizableLinear(in_features=256, out_features=256, bias=True)
  )
  (fc): Linear(in_features=256, out_features=256, bias=True)
  (act_func): GELU(approximate='none')
)
2024-08-12 12:36:17,676 Conv1D block [0], with input_dim=512, output_dim=256
2024-08-12 12:36:17,682 Residual block with conv_block=Conv1DBlock(
  (conv1d): Conv1d(512, 256, kernel_size=(3,), stride=(1,), padding=(1,))
  (norm): Normalization(
    (norm): BatchNorm1d(256, eps=1e-05, momentum=0.1, affine=True, track_running_stats=True)
  )
  (act_func): GELU(approximate='none')
), feature_block=MHABlock(
  (mha): MultiheadAttention(
    (out_proj): NonDynamicallyQuantizableLinear(in_features=256, out_features=256, bias=True)
  )
  (fc): Linear(in_features=256, out_features=256, bias=True)
  (act_func): GELU(approximate='none')
)
2024-08-12 12:36:17,685 Conv1D block [1], with input_dim=256, output_dim=256
2024-08-12 12:36:17,690 Residual block with conv_block=Conv1DBlock(
  (conv1d): Conv1d(256, 256, kernel_size=(3,), stride=(1,), padding=(1,))
  (norm): Normalization(
    (norm): BatchNorm1d(256, eps=1e-05, momentum=0.1, affine=True, track_running_stats=True)
  )
  (act_func): GELU(approximate='none')
), feature_block=MHABlock(
  (mha): MultiheadAttention(
    (out_proj): NonDynamicallyQuantizableLinear(in_features=256, out_features=256, bias=True)
  )
  (fc): Linear(in_features=256, out_features=256, bias=True)
  (act_func): GELU(approximate='none')
)
2024-08-12 12:36:17,693 Conv1D block [2], with input_dim=256, output_dim=256
2024-08-12 12:36:17,698 Residual block with conv_block=Conv1DBlock(
  (conv1d): Conv1d(256, 256, kernel_size=(3,), stride=(1,), padding=(1,))
  (norm): Normalization(
    (norm): BatchNorm1d(256, eps=1e-05, momentum=0.1, affine=True, track_running_stats=True)
  )
  (act_func): GELU(approximate='none')
), feature_block=MHABlock(
  (mha): MultiheadAttention(
    (out_proj): NonDynamicallyQuantizableLinear(in_features=256, out_features=256, bias=True)
  )
  (fc): Linear(in_features=256, out_features=256, bias=True)
  (act_func): GELU(approximate='none')
)
2024-08-12 12:36:17,701 Conv1D block [3], with input_dim=256, output_dim=256
2024-08-12 12:36:17,705 Residual block with conv_block=Conv1DBlock(
  (conv1d): Conv1d(256, 256, kernel_size=(3,), stride=(1,), padding=(1,))
  (norm): Normalization(
    (norm): BatchNorm1d(256, eps=1e-05, momentum=0.1, affine=True, track_running_stats=True)
  )
  (act_func): GELU(approximate='none')
), feature_block=MHABlock(
  (mha): MultiheadAttention(
    (out_proj): NonDynamicallyQuantizableLinear(in_features=256, out_features=256, bias=True)
  )
  (fc): Linear(in_features=256, out_features=256, bias=True)
  (act_func): GELU(approximate='none')
)
2024-08-12 12:36:17,708 Conv1D block [4], with input_dim=256, output_dim=256
2024-08-12 12:36:17,713 Residual block with conv_block=Conv1DBlock(
  (conv1d): Conv1d(256, 256, kernel_size=(3,), stride=(1,), padding=(1,))
  (norm): Normalization(
    (norm): BatchNorm1d(256, eps=1e-05, momentum=0.1, affine=True, track_running_stats=True)
  )
  (act_func): GELU(approximate='none')
), feature_block=MHABlock(
  (mha): MultiheadAttention(
    (out_proj): NonDynamicallyQuantizableLinear(in_features=256, out_features=256, bias=True)
  )
  (fc): Linear(in_features=256, out_features=256, bias=True)
  (act_func): GELU(approximate='none')
)
2024-08-12 12:36:17,716 Conv1D block [5], with input_dim=256, output_dim=256
2024-08-12 12:36:17,721 Residual block with conv_block=Conv1DBlock(
  (conv1d): Conv1d(256, 256, kernel_size=(3,), stride=(1,), padding=(1,))
  (norm): Normalization(
    (norm): BatchNorm1d(256, eps=1e-05, momentum=0.1, affine=True, track_running_stats=True)
  )
  (act_func): GELU(approximate='none')
), feature_block=MHABlock(
  (mha): MultiheadAttention(
    (out_proj): NonDynamicallyQuantizableLinear(in_features=256, out_features=256, bias=True)
  )
  (fc): Linear(in_features=256, out_features=256, bias=True)
  (act_func): GELU(approximate='none')
)
2024-08-12 12:36:24,132 Conv1D block [0], with input_dim=64, output_dim=64
2024-08-12 12:36:24,133 Residual block with conv_block=Conv1DBlock(
  (conv1d): Conv1d(64, 64, kernel_size=(3,), stride=(1,), padding=(1,))
  (norm): Normalization(
    (norm): BatchNorm1d(64, eps=1e-05, momentum=0.1, affine=True, track_running_stats=True)
  )
  (act_func): GELU(approximate='none')
), feature_block=MHABlock(
  (mha): MultiheadAttention(
    (out_proj): NonDynamicallyQuantizableLinear(in_features=64, out_features=64, bias=True)
  )
  (fc): Linear(in_features=64, out_features=64, bias=True)
  (act_func): GELU(approximate='none')
)
2024-08-12 12:36:24,134 Conv1D block [1], with input_dim=64, output_dim=64
2024-08-12 12:36:24,135 Residual block with conv_block=Conv1DBlock(
  (conv1d): Conv1d(64, 64, kernel_size=(3,), stride=(1,), padding=(1,))
  (norm): Normalization(
    (norm): BatchNorm1d(64, eps=1e-05, momentum=0.1, affine=True, track_running_stats=True)
  )
  (act_func): GELU(approximate='none')
), feature_block=MHABlock(
  (mha): MultiheadAttention(
    (out_proj): NonDynamicallyQuantizableLinear(in_features=64, out_features=64, bias=True)
  )
  (fc): Linear(in_features=64, out_features=64, bias=True)
  (act_func): GELU(approximate='none')
)
2024-08-12 12:36:24,135 Conv1D block [2], with input_dim=64, output_dim=64
2024-08-12 12:36:24,136 Residual block with conv_block=Conv1DBlock(
  (conv1d): Conv1d(64, 64, kernel_size=(3,), stride=(1,), padding=(1,))
  (norm): Normalization(
    (norm): BatchNorm1d(64, eps=1e-05, momentum=0.1, affine=True, track_running_stats=True)
  )
  (act_func): GELU(approximate='none')
), feature_block=MHABlock(
  (mha): MultiheadAttention(
    (out_proj): NonDynamicallyQuantizableLinear(in_features=64, out_features=64, bias=True)
  )
  (fc): Linear(in_features=64, out_features=64, bias=True)
  (act_func): GELU(approximate='none')
)
2024-08-12 12:36:24,137 Conv1D block [3], with input_dim=64, output_dim=64
2024-08-12 12:36:24,138 Residual block with conv_block=Conv1DBlock(
  (conv1d): Conv1d(64, 64, kernel_size=(3,), stride=(1,), padding=(1,))
  (norm): Normalization(
    (norm): BatchNorm1d(64, eps=1e-05, momentum=0.1, affine=True, track_running_stats=True)
  )
  (act_func): GELU(approximate='none')
), feature_block=MHABlock(
  (mha): MultiheadAttention(
    (out_proj): NonDynamicallyQuantizableLinear(in_features=64, out_features=64, bias=True)
  )
  (fc): Linear(in_features=64, out_features=64, bias=True)
  (act_func): GELU(approximate='none')
)
2024-08-12 12:36:24,138 Conv1D block [4], with input_dim=64, output_dim=64
2024-08-12 12:36:24,139 Residual block with conv_block=Conv1DBlock(
  (conv1d): Conv1d(64, 64, kernel_size=(3,), stride=(1,), padding=(1,))
  (norm): Normalization(
    (norm): BatchNorm1d(64, eps=1e-05, momentum=0.1, affine=True, track_running_stats=True)
  )
  (act_func): GELU(approximate='none')
), feature_block=MHABlock(
  (mha): MultiheadAttention(
    (out_proj): NonDynamicallyQuantizableLinear(in_features=64, out_features=64, bias=True)
  )
  (fc): Linear(in_features=64, out_features=64, bias=True)
  (act_func): GELU(approximate='none')
)
2024-08-12 12:36:24,140 Conv1D block [5], with input_dim=64, output_dim=64
2024-08-12 12:36:24,141 Residual block with conv_block=Conv1DBlock(
  (conv1d): Conv1d(64, 64, kernel_size=(3,), stride=(1,), padding=(1,))
  (norm): Normalization(
    (norm): BatchNorm1d(64, eps=1e-05, momentum=0.1, affine=True, track_running_stats=True)
  )
  (act_func): GELU(approximate='none')
), feature_block=MHABlock(
  (mha): MultiheadAttention(
    (out_proj): NonDynamicallyQuantizableLinear(in_features=64, out_features=64, bias=True)
  )
  (fc): Linear(in_features=64, out_features=64, bias=True)
  (act_func): GELU(approximate='none')
)
2024-08-12 12:36:36,175 Conv1D block [0], with input_dim=512, output_dim=256
2024-08-12 12:36:36,182 Residual block with conv_block=Conv1DBlock(
  (conv1d): Conv1d(512, 256, kernel_size=(3,), stride=(1,), padding=(1,))
  (norm): Normalization(
    (norm): BatchNorm1d(256, eps=1e-05, momentum=0.1, affine=True, track_running_stats=True)
  )
  (act_func): GELU(approximate='none')
), feature_block=MHABlock(
  (mha): MultiheadAttention(
    (out_proj): NonDynamicallyQuantizableLinear(in_features=256, out_features=256, bias=True)
  )
  (fc): Linear(in_features=256, out_features=256, bias=True)
  (act_func): GELU(approximate='none')
)
2024-08-12 12:36:36,185 Conv1D block [1], with input_dim=256, output_dim=256
2024-08-12 12:36:36,190 Residual block with conv_block=Conv1DBlock(
  (conv1d): Conv1d(256, 256, kernel_size=(3,), stride=(1,), padding=(1,))
  (norm): Normalization(
    (norm): BatchNorm1d(256, eps=1e-05, momentum=0.1, affine=True, track_running_stats=True)
  )
  (act_func): GELU(approximate='none')
), feature_block=MHABlock(
  (mha): MultiheadAttention(
    (out_proj): NonDynamicallyQuantizableLinear(in_features=256, out_features=256, bias=True)
  )
  (fc): Linear(in_features=256, out_features=256, bias=True)
  (act_func): GELU(approximate='none')
)
2024-08-12 12:36:36,193 Conv1D block [2], with input_dim=256, output_dim=256
2024-08-12 12:36:36,198 Residual block with conv_block=Conv1DBlock(
  (conv1d): Conv1d(256, 256, kernel_size=(3,), stride=(1,), padding=(1,))
  (norm): Normalization(
    (norm): BatchNorm1d(256, eps=1e-05, momentum=0.1, affine=True, track_running_stats=True)
  )
  (act_func): GELU(approximate='none')
), feature_block=MHABlock(
  (mha): MultiheadAttention(
    (out_proj): NonDynamicallyQuantizableLinear(in_features=256, out_features=256, bias=True)
  )
  (fc): Linear(in_features=256, out_features=256, bias=True)
  (act_func): GELU(approximate='none')
)
2024-08-12 12:36:36,200 Conv1D block [3], with input_dim=256, output_dim=256
2024-08-12 12:36:36,205 Residual block with conv_block=Conv1DBlock(
  (conv1d): Conv1d(256, 256, kernel_size=(3,), stride=(1,), padding=(1,))
  (norm): Normalization(
    (norm): BatchNorm1d(256, eps=1e-05, momentum=0.1, affine=True, track_running_stats=True)
  )
  (act_func): GELU(approximate='none')
), feature_block=MHABlock(
  (mha): MultiheadAttention(
    (out_proj): NonDynamicallyQuantizableLinear(in_features=256, out_features=256, bias=True)
  )
  (fc): Linear(in_features=256, out_features=256, bias=True)
  (act_func): GELU(approximate='none')
)
2024-08-12 12:36:36,208 Conv1D block [4], with input_dim=256, output_dim=256
2024-08-12 12:36:36,213 Residual block with conv_block=Conv1DBlock(
  (conv1d): Conv1d(256, 256, kernel_size=(3,), stride=(1,), padding=(1,))
  (norm): Normalization(
    (norm): BatchNorm1d(256, eps=1e-05, momentum=0.1, affine=True, track_running_stats=True)
  )
  (act_func): GELU(approximate='none')
), feature_block=MHABlock(
  (mha): MultiheadAttention(
    (out_proj): NonDynamicallyQuantizableLinear(in_features=256, out_features=256, bias=True)
  )
  (fc): Linear(in_features=256, out_features=256, bias=True)
  (act_func): GELU(approximate='none')
)
2024-08-12 12:36:36,216 Conv1D block [5], with input_dim=256, output_dim=256
2024-08-12 12:36:36,220 Residual block with conv_block=Conv1DBlock(
  (conv1d): Conv1d(256, 256, kernel_size=(3,), stride=(1,), padding=(1,))
  (norm): Normalization(
    (norm): BatchNorm1d(256, eps=1e-05, momentum=0.1, affine=True, track_running_stats=True)
  )
  (act_func): GELU(approximate='none')
), feature_block=MHABlock(
  (mha): MultiheadAttention(
    (out_proj): NonDynamicallyQuantizableLinear(in_features=256, out_features=256, bias=True)
  )
  (fc): Linear(in_features=256, out_features=256, bias=True)
  (act_func): GELU(approximate='none')
)
2024-08-12 12:36:37,879 Conv1D block [0], with input_dim=512, output_dim=256
2024-08-12 12:36:37,886 Residual block with conv_block=Conv1DBlock(
  (conv1d): Conv1d(512, 256, kernel_size=(3,), stride=(1,), padding=(1,))
  (norm): Normalization(
    (norm): BatchNorm1d(256, eps=1e-05, momentum=0.1, affine=True, track_running_stats=True)
  )
  (act_func): GELU(approximate='none')
), feature_block=MHABlock(
  (mha): MultiheadAttention(
    (out_proj): NonDynamicallyQuantizableLinear(in_features=256, out_features=256, bias=True)
  )
  (fc): Linear(in_features=256, out_features=256, bias=True)
  (act_func): GELU(approximate='none')
)
2024-08-12 12:36:37,890 Conv1D block [1], with input_dim=256, output_dim=256
2024-08-12 12:36:37,907 Residual block with conv_block=Conv1DBlock(
  (conv1d): Conv1d(256, 256, kernel_size=(3,), stride=(1,), padding=(1,))
  (norm): Normalization(
    (norm): BatchNorm1d(256, eps=1e-05, momentum=0.1, affine=True, track_running_stats=True)
  )
  (act_func): GELU(approximate='none')
), feature_block=MHABlock(
  (mha): MultiheadAttention(
    (out_proj): NonDynamicallyQuantizableLinear(in_features=256, out_features=256, bias=True)
  )
  (fc): Linear(in_features=256, out_features=256, bias=True)
  (act_func): GELU(approximate='none')
)
2024-08-12 12:36:37,910 Conv1D block [2], with input_dim=256, output_dim=256
2024-08-12 12:36:37,915 Residual block with conv_block=Conv1DBlock(
  (conv1d): Conv1d(256, 256, kernel_size=(3,), stride=(1,), padding=(1,))
  (norm): Normalization(
    (norm): BatchNorm1d(256, eps=1e-05, momentum=0.1, affine=True, track_running_stats=True)
  )
  (act_func): GELU(approximate='none')
), feature_block=MHABlock(
  (mha): MultiheadAttention(
    (out_proj): NonDynamicallyQuantizableLinear(in_features=256, out_features=256, bias=True)
  )
  (fc): Linear(in_features=256, out_features=256, bias=True)
  (act_func): GELU(approximate='none')
)
2024-08-12 12:36:37,919 Conv1D block [3], with input_dim=256, output_dim=256
2024-08-12 12:36:37,923 Residual block with conv_block=Conv1DBlock(
  (conv1d): Conv1d(256, 256, kernel_size=(3,), stride=(1,), padding=(1,))
  (norm): Normalization(
    (norm): BatchNorm1d(256, eps=1e-05, momentum=0.1, affine=True, track_running_stats=True)
  )
  (act_func): GELU(approximate='none')
), feature_block=MHABlock(
  (mha): MultiheadAttention(
    (out_proj): NonDynamicallyQuantizableLinear(in_features=256, out_features=256, bias=True)
  )
  (fc): Linear(in_features=256, out_features=256, bias=True)
  (act_func): GELU(approximate='none')
)
2024-08-12 12:36:37,927 Conv1D block [4], with input_dim=256, output_dim=256
2024-08-12 12:36:37,932 Residual block with conv_block=Conv1DBlock(
  (conv1d): Conv1d(256, 256, kernel_size=(3,), stride=(1,), padding=(1,))
  (norm): Normalization(
    (norm): BatchNorm1d(256, eps=1e-05, momentum=0.1, affine=True, track_running_stats=True)
  )
  (act_func): GELU(approximate='none')
), feature_block=MHABlock(
  (mha): MultiheadAttention(
    (out_proj): NonDynamicallyQuantizableLinear(in_features=256, out_features=256, bias=True)
  )
  (fc): Linear(in_features=256, out_features=256, bias=True)
  (act_func): GELU(approximate='none')
)
2024-08-12 12:36:37,936 Conv1D block [5], with input_dim=256, output_dim=256
2024-08-12 12:36:37,941 Residual block with conv_block=Conv1DBlock(
  (conv1d): Conv1d(256, 256, kernel_size=(3,), stride=(1,), padding=(1,))
  (norm): Normalization(
    (norm): BatchNorm1d(256, eps=1e-05, momentum=0.1, affine=True, track_running_stats=True)
  )
  (act_func): GELU(approximate='none')
), feature_block=MHABlock(
  (mha): MultiheadAttention(
    (out_proj): NonDynamicallyQuantizableLinear(in_features=256, out_features=256, bias=True)
  )
  (fc): Linear(in_features=256, out_features=256, bias=True)
  (act_func): GELU(approximate='none')
)
2024-08-12 12:36:42,460 Conv1D block [0], with input_dim=64, output_dim=64
2024-08-12 12:36:42,462 Residual block with conv_block=Conv1DBlock(
  (conv1d): Conv1d(64, 64, kernel_size=(3,), stride=(1,), padding=(1,))
  (norm): Normalization(
    (norm): BatchNorm1d(64, eps=1e-05, momentum=0.1, affine=True, track_running_stats=True)
  )
  (act_func): GELU(approximate='none')
), feature_block=MHABlock(
  (mha): MultiheadAttention(
    (out_proj): NonDynamicallyQuantizableLinear(in_features=64, out_features=64, bias=True)
  )
  (fc): Linear(in_features=64, out_features=64, bias=True)
  (act_func): GELU(approximate='none')
)
2024-08-12 12:36:42,463 Conv1D block [1], with input_dim=64, output_dim=64
2024-08-12 12:36:42,464 Residual block with conv_block=Conv1DBlock(
  (conv1d): Conv1d(64, 64, kernel_size=(3,), stride=(1,), padding=(1,))
  (norm): Normalization(
    (norm): BatchNorm1d(64, eps=1e-05, momentum=0.1, affine=True, track_running_stats=True)
  )
  (act_func): GELU(approximate='none')
), feature_block=MHABlock(
  (mha): MultiheadAttention(
    (out_proj): NonDynamicallyQuantizableLinear(in_features=64, out_features=64, bias=True)
  )
  (fc): Linear(in_features=64, out_features=64, bias=True)
  (act_func): GELU(approximate='none')
)
2024-08-12 12:36:42,465 Conv1D block [2], with input_dim=64, output_dim=64
2024-08-12 12:36:42,466 Residual block with conv_block=Conv1DBlock(
  (conv1d): Conv1d(64, 64, kernel_size=(3,), stride=(1,), padding=(1,))
  (norm): Normalization(
    (norm): BatchNorm1d(64, eps=1e-05, momentum=0.1, affine=True, track_running_stats=True)
  )
  (act_func): GELU(approximate='none')
), feature_block=MHABlock(
  (mha): MultiheadAttention(
    (out_proj): NonDynamicallyQuantizableLinear(in_features=64, out_features=64, bias=True)
  )
  (fc): Linear(in_features=64, out_features=64, bias=True)
  (act_func): GELU(approximate='none')
)
2024-08-12 12:36:42,467 Conv1D block [3], with input_dim=64, output_dim=64
2024-08-12 12:36:42,467 Residual block with conv_block=Conv1DBlock(
  (conv1d): Conv1d(64, 64, kernel_size=(3,), stride=(1,), padding=(1,))
  (norm): Normalization(
    (norm): BatchNorm1d(64, eps=1e-05, momentum=0.1, affine=True, track_running_stats=True)
  )
  (act_func): GELU(approximate='none')
), feature_block=MHABlock(
  (mha): MultiheadAttention(
    (out_proj): NonDynamicallyQuantizableLinear(in_features=64, out_features=64, bias=True)
  )
  (fc): Linear(in_features=64, out_features=64, bias=True)
  (act_func): GELU(approximate='none')
)
2024-08-12 12:36:42,468 Conv1D block [4], with input_dim=64, output_dim=64
2024-08-12 12:36:42,469 Residual block with conv_block=Conv1DBlock(
  (conv1d): Conv1d(64, 64, kernel_size=(3,), stride=(1,), padding=(1,))
  (norm): Normalization(
    (norm): BatchNorm1d(64, eps=1e-05, momentum=0.1, affine=True, track_running_stats=True)
  )
  (act_func): GELU(approximate='none')
), feature_block=MHABlock(
  (mha): MultiheadAttention(
    (out_proj): NonDynamicallyQuantizableLinear(in_features=64, out_features=64, bias=True)
  )
  (fc): Linear(in_features=64, out_features=64, bias=True)
  (act_func): GELU(approximate='none')
)
2024-08-12 12:36:42,469 Conv1D block [5], with input_dim=64, output_dim=64
2024-08-12 12:36:42,470 Residual block with conv_block=Conv1DBlock(
  (conv1d): Conv1d(64, 64, kernel_size=(3,), stride=(1,), padding=(1,))
  (norm): Normalization(
    (norm): BatchNorm1d(64, eps=1e-05, momentum=0.1, affine=True, track_running_stats=True)
  )
  (act_func): GELU(approximate='none')
), feature_block=MHABlock(
  (mha): MultiheadAttention(
    (out_proj): NonDynamicallyQuantizableLinear(in_features=64, out_features=64, bias=True)
  )
  (fc): Linear(in_features=64, out_features=64, bias=True)
  (act_func): GELU(approximate='none')
)
2024-08-12 12:36:56,809 Conv1D block [0], with input_dim=512, output_dim=64
2024-08-12 12:36:56,821 Residual block with conv_block=Conv1DBlock(
  (conv1d): Conv1d(512, 64, kernel_size=(3,), stride=(1,), padding=(1,))
  (norm): Normalization(
    (norm): BatchNorm1d(64, eps=1e-05, momentum=0.1, affine=True, track_running_stats=True)
  )
  (act_func): GELU(approximate='none')
), feature_block=MHABlock(
  (mha): MultiheadAttention(
    (out_proj): NonDynamicallyQuantizableLinear(in_features=64, out_features=64, bias=True)
  )
  (fc): Linear(in_features=64, out_features=64, bias=True)
  (act_func): GELU(approximate='none')
)
2024-08-12 12:36:56,824 Conv1D block [1], with input_dim=64, output_dim=64
2024-08-12 12:36:56,825 Residual block with conv_block=Conv1DBlock(
  (conv1d): Conv1d(64, 64, kernel_size=(3,), stride=(1,), padding=(1,))
  (norm): Normalization(
    (norm): BatchNorm1d(64, eps=1e-05, momentum=0.1, affine=True, track_running_stats=True)
  )
  (act_func): GELU(approximate='none')
), feature_block=MHABlock(
  (mha): MultiheadAttention(
    (out_proj): NonDynamicallyQuantizableLinear(in_features=64, out_features=64, bias=True)
  )
  (fc): Linear(in_features=64, out_features=64, bias=True)
  (act_func): GELU(approximate='none')
)
2024-08-12 12:36:57,695 Conv1D block [0], with input_dim=64, output_dim=256
2024-08-12 12:36:57,699 Residual block with conv_block=Conv1DBlock(
  (conv1d): Conv1d(64, 256, kernel_size=(3,), stride=(1,), padding=(1,))
  (norm): Normalization(
    (norm): BatchNorm1d(256, eps=1e-05, momentum=0.1, affine=True, track_running_stats=True)
  )
  (act_func): GELU(approximate='none')
), feature_block=MHABlock(
  (mha): MultiheadAttention(
    (out_proj): NonDynamicallyQuantizableLinear(in_features=256, out_features=256, bias=True)
  )
  (fc): Linear(in_features=256, out_features=256, bias=True)
  (act_func): GELU(approximate='none')
)
2024-08-12 12:36:57,701 Conv1D block [1], with input_dim=256, output_dim=256
2024-08-12 12:36:57,705 Residual block with conv_block=Conv1DBlock(
  (conv1d): Conv1d(256, 256, kernel_size=(3,), stride=(1,), padding=(1,))
  (norm): Normalization(
    (norm): BatchNorm1d(256, eps=1e-05, momentum=0.1, affine=True, track_running_stats=True)
  )
  (act_func): GELU(approximate='none')
), feature_block=MHABlock(
  (mha): MultiheadAttention(
    (out_proj): NonDynamicallyQuantizableLinear(in_features=256, out_features=256, bias=True)
  )
  (fc): Linear(in_features=256, out_features=256, bias=True)
  (act_func): GELU(approximate='none')
)
2024-08-12 12:37:27,868 Conv1D block [0], with input_dim=512, output_dim=256
2024-08-12 12:37:27,875 Residual block with conv_block=Conv1DBlock(
  (conv1d): Conv1d(512, 256, kernel_size=(3,), stride=(1,), padding=(1,))
  (norm): Normalization(
    (norm): BatchNorm1d(256, eps=1e-05, momentum=0.1, affine=True, track_running_stats=True)
  )
  (act_func): GELU(approximate='none')
), feature_block=MHABlock(
  (mha): MultiheadAttention(
    (out_proj): NonDynamicallyQuantizableLinear(in_features=256, out_features=256, bias=True)
  )
  (fc): Linear(in_features=256, out_features=256, bias=True)
  (act_func): GELU(approximate='none')
)
2024-08-12 12:37:27,878 Conv1D block [1], with input_dim=256, output_dim=256
2024-08-12 12:37:27,883 Residual block with conv_block=Conv1DBlock(
  (conv1d): Conv1d(256, 256, kernel_size=(3,), stride=(1,), padding=(1,))
  (norm): Normalization(
    (norm): BatchNorm1d(256, eps=1e-05, momentum=0.1, affine=True, track_running_stats=True)
  )
  (act_func): GELU(approximate='none')
), feature_block=MHABlock(
  (mha): MultiheadAttention(
    (out_proj): NonDynamicallyQuantizableLinear(in_features=256, out_features=256, bias=True)
  )
  (fc): Linear(in_features=256, out_features=256, bias=True)
  (act_func): GELU(approximate='none')
)
2024-08-12 12:37:27,885 Conv1D block [2], with input_dim=256, output_dim=256
2024-08-12 12:37:27,890 Residual block with conv_block=Conv1DBlock(
  (conv1d): Conv1d(256, 256, kernel_size=(3,), stride=(1,), padding=(1,))
  (norm): Normalization(
    (norm): BatchNorm1d(256, eps=1e-05, momentum=0.1, affine=True, track_running_stats=True)
  )
  (act_func): GELU(approximate='none')
), feature_block=MHABlock(
  (mha): MultiheadAttention(
    (out_proj): NonDynamicallyQuantizableLinear(in_features=256, out_features=256, bias=True)
  )
  (fc): Linear(in_features=256, out_features=256, bias=True)
  (act_func): GELU(approximate='none')
)
2024-08-12 12:37:27,892 Conv1D block [3], with input_dim=256, output_dim=256
2024-08-12 12:37:27,897 Residual block with conv_block=Conv1DBlock(
  (conv1d): Conv1d(256, 256, kernel_size=(3,), stride=(1,), padding=(1,))
  (norm): Normalization(
    (norm): BatchNorm1d(256, eps=1e-05, momentum=0.1, affine=True, track_running_stats=True)
  )
  (act_func): GELU(approximate='none')
), feature_block=MHABlock(
  (mha): MultiheadAttention(
    (out_proj): NonDynamicallyQuantizableLinear(in_features=256, out_features=256, bias=True)
  )
  (fc): Linear(in_features=256, out_features=256, bias=True)
  (act_func): GELU(approximate='none')
)
2024-08-12 12:37:27,900 Conv1D block [4], with input_dim=256, output_dim=256
2024-08-12 12:37:27,904 Residual block with conv_block=Conv1DBlock(
  (conv1d): Conv1d(256, 256, kernel_size=(3,), stride=(1,), padding=(1,))
  (norm): Normalization(
    (norm): BatchNorm1d(256, eps=1e-05, momentum=0.1, affine=True, track_running_stats=True)
  )
  (act_func): GELU(approximate='none')
), feature_block=MHABlock(
  (mha): MultiheadAttention(
    (out_proj): NonDynamicallyQuantizableLinear(in_features=256, out_features=256, bias=True)
  )
  (fc): Linear(in_features=256, out_features=256, bias=True)
  (act_func): GELU(approximate='none')
)
2024-08-12 12:37:27,907 Conv1D block [5], with input_dim=256, output_dim=256
2024-08-12 12:37:27,912 Residual block with conv_block=Conv1DBlock(
  (conv1d): Conv1d(256, 256, kernel_size=(3,), stride=(1,), padding=(1,))
  (norm): Normalization(
    (norm): BatchNorm1d(256, eps=1e-05, momentum=0.1, affine=True, track_running_stats=True)
  )
  (act_func): GELU(approximate='none')
), feature_block=MHABlock(
  (mha): MultiheadAttention(
    (out_proj): NonDynamicallyQuantizableLinear(in_features=256, out_features=256, bias=True)
  )
  (fc): Linear(in_features=256, out_features=256, bias=True)
  (act_func): GELU(approximate='none')
)
2024-08-12 12:37:28,734 Conv1D block [0], with input_dim=64, output_dim=64
2024-08-12 12:37:28,735 Residual block with conv_block=Conv1DBlock(
  (conv1d): Conv1d(64, 64, kernel_size=(3,), stride=(1,), padding=(1,))
  (norm): Normalization(
    (norm): BatchNorm1d(64, eps=1e-05, momentum=0.1, affine=True, track_running_stats=True)
  )
  (act_func): GELU(approximate='none')
), feature_block=MHABlock(
  (mha): MultiheadAttention(
    (out_proj): NonDynamicallyQuantizableLinear(in_features=64, out_features=64, bias=True)
  )
  (fc): Linear(in_features=64, out_features=64, bias=True)
  (act_func): GELU(approximate='none')
)
2024-08-12 12:37:28,736 Conv1D block [1], with input_dim=64, output_dim=64
2024-08-12 12:37:28,736 Residual block with conv_block=Conv1DBlock(
  (conv1d): Conv1d(64, 64, kernel_size=(3,), stride=(1,), padding=(1,))
  (norm): Normalization(
    (norm): BatchNorm1d(64, eps=1e-05, momentum=0.1, affine=True, track_running_stats=True)
  )
  (act_func): GELU(approximate='none')
), feature_block=MHABlock(
  (mha): MultiheadAttention(
    (out_proj): NonDynamicallyQuantizableLinear(in_features=64, out_features=64, bias=True)
  )
  (fc): Linear(in_features=64, out_features=64, bias=True)
  (act_func): GELU(approximate='none')
)
2024-08-12 12:37:38,326 Conv1D block [0], with input_dim=512, output_dim=256
2024-08-12 12:37:38,331 Residual block with conv_block=Conv1DBlock(
  (conv1d): Conv1d(512, 256, kernel_size=(3,), stride=(1,), padding=(1,))
  (norm): Normalization(
    (norm): BatchNorm1d(256, eps=1e-05, momentum=0.1, affine=True, track_running_stats=True)
  )
  (act_func): GELU(approximate='none')
), feature_block=MHABlock(
  (mha): MultiheadAttention(
    (out_proj): NonDynamicallyQuantizableLinear(in_features=256, out_features=256, bias=True)
  )
  (fc): Linear(in_features=256, out_features=256, bias=True)
  (act_func): GELU(approximate='none')
)
2024-08-12 12:37:38,333 Conv1D block [1], with input_dim=256, output_dim=256
2024-08-12 12:37:38,337 Residual block with conv_block=Conv1DBlock(
  (conv1d): Conv1d(256, 256, kernel_size=(3,), stride=(1,), padding=(1,))
  (norm): Normalization(
    (norm): BatchNorm1d(256, eps=1e-05, momentum=0.1, affine=True, track_running_stats=True)
  )
  (act_func): GELU(approximate='none')
), feature_block=MHABlock(
  (mha): MultiheadAttention(
    (out_proj): NonDynamicallyQuantizableLinear(in_features=256, out_features=256, bias=True)
  )
  (fc): Linear(in_features=256, out_features=256, bias=True)
  (act_func): GELU(approximate='none')
)
2024-08-12 12:38:03,082 Conv1D block [0], with input_dim=512, output_dim=256
2024-08-12 12:38:03,088 Residual block with conv_block=Conv1DBlock(
  (conv1d): Conv1d(512, 256, kernel_size=(3,), stride=(1,), padding=(1,))
  (norm): Normalization(
    (norm): BatchNorm1d(256, eps=1e-05, momentum=0.1, affine=True, track_running_stats=True)
  )
  (act_func): GELU(approximate='none')
), feature_block=MHABlock(
  (mha): MultiheadAttention(
    (out_proj): NonDynamicallyQuantizableLinear(in_features=256, out_features=256, bias=True)
  )
  (fc): Linear(in_features=256, out_features=256, bias=True)
  (act_func): GELU(approximate='none')
)
2024-08-12 12:38:03,091 Conv1D block [1], with input_dim=256, output_dim=256
2024-08-12 12:38:03,096 Residual block with conv_block=Conv1DBlock(
  (conv1d): Conv1d(256, 256, kernel_size=(3,), stride=(1,), padding=(1,))
  (norm): Normalization(
    (norm): BatchNorm1d(256, eps=1e-05, momentum=0.1, affine=True, track_running_stats=True)
  )
  (act_func): GELU(approximate='none')
), feature_block=MHABlock(
  (mha): MultiheadAttention(
    (out_proj): NonDynamicallyQuantizableLinear(in_features=256, out_features=256, bias=True)
  )
  (fc): Linear(in_features=256, out_features=256, bias=True)
  (act_func): GELU(approximate='none')
)
2024-08-12 12:38:13,508 Conv1D block [0], with input_dim=512, output_dim=64
2024-08-12 12:38:13,511 Residual block with conv_block=Conv1DBlock(
  (conv1d): Conv1d(512, 64, kernel_size=(3,), stride=(1,), padding=(1,))
  (norm): Normalization(
    (norm): BatchNorm1d(64, eps=1e-05, momentum=0.1, affine=True, track_running_stats=True)
  )
  (act_func): GELU(approximate='none')
), feature_block=MLPBlock(
  (mlp): Sequential(
    (0): Linear(in_features=64, out_features=512, bias=True)
    (1): GELU(approximate='none')
    (2): Linear(in_features=512, out_features=64, bias=True)
    (3): GELU(approximate='none')
  )
)
2024-08-12 12:38:13,511 Conv1D block [1], with input_dim=64, output_dim=64
2024-08-12 12:38:13,513 Residual block with conv_block=Conv1DBlock(
  (conv1d): Conv1d(64, 64, kernel_size=(3,), stride=(1,), padding=(1,))
  (norm): Normalization(
    (norm): BatchNorm1d(64, eps=1e-05, momentum=0.1, affine=True, track_running_stats=True)
  )
  (act_func): GELU(approximate='none')
), feature_block=MLPBlock(
  (mlp): Sequential(
    (0): Linear(in_features=64, out_features=512, bias=True)
    (1): GELU(approximate='none')
    (2): Linear(in_features=512, out_features=64, bias=True)
    (3): GELU(approximate='none')
  )
)
2024-08-12 12:38:17,236 Conv1D block [0], with input_dim=512, output_dim=256
2024-08-12 12:38:17,243 Residual block with conv_block=Conv1DBlock(
  (conv1d): Conv1d(512, 256, kernel_size=(3,), stride=(1,), padding=(1,))
  (norm): Normalization(
    (norm): BatchNorm1d(256, eps=1e-05, momentum=0.1, affine=True, track_running_stats=True)
  )
  (act_func): GELU(approximate='none')
), feature_block=MHABlock(
  (mha): MultiheadAttention(
    (out_proj): NonDynamicallyQuantizableLinear(in_features=256, out_features=256, bias=True)
  )
  (fc): Linear(in_features=256, out_features=256, bias=True)
  (act_func): GELU(approximate='none')
)
2024-08-12 12:38:17,245 Conv1D block [1], with input_dim=256, output_dim=256
2024-08-12 12:38:17,249 Residual block with conv_block=Conv1DBlock(
  (conv1d): Conv1d(256, 256, kernel_size=(3,), stride=(1,), padding=(1,))
  (norm): Normalization(
    (norm): BatchNorm1d(256, eps=1e-05, momentum=0.1, affine=True, track_running_stats=True)
  )
  (act_func): GELU(approximate='none')
), feature_block=MHABlock(
  (mha): MultiheadAttention(
    (out_proj): NonDynamicallyQuantizableLinear(in_features=256, out_features=256, bias=True)
  )
  (fc): Linear(in_features=256, out_features=256, bias=True)
  (act_func): GELU(approximate='none')
)
2024-08-12 12:38:43,630 Conv1D block [0], with input_dim=512, output_dim=256
2024-08-12 12:38:43,637 Residual block with conv_block=Conv1DBlock(
  (conv1d): Conv1d(512, 256, kernel_size=(3,), stride=(1,), padding=(1,))
  (norm): Normalization(
    (norm): BatchNorm1d(256, eps=1e-05, momentum=0.1, affine=True, track_running_stats=True)
  )
  (act_func): GELU(approximate='none')
), feature_block=MHABlock(
  (mha): MultiheadAttention(
    (out_proj): NonDynamicallyQuantizableLinear(in_features=256, out_features=256, bias=True)
  )
  (fc): Linear(in_features=256, out_features=256, bias=True)
  (act_func): GELU(approximate='none')
)
2024-08-12 12:38:43,639 Conv1D block [1], with input_dim=256, output_dim=256
2024-08-12 12:38:43,643 Residual block with conv_block=Conv1DBlock(
  (conv1d): Conv1d(256, 256, kernel_size=(3,), stride=(1,), padding=(1,))
  (norm): Normalization(
    (norm): BatchNorm1d(256, eps=1e-05, momentum=0.1, affine=True, track_running_stats=True)
  )
  (act_func): GELU(approximate='none')
), feature_block=MHABlock(
  (mha): MultiheadAttention(
    (out_proj): NonDynamicallyQuantizableLinear(in_features=256, out_features=256, bias=True)
  )
  (fc): Linear(in_features=256, out_features=256, bias=True)
  (act_func): GELU(approximate='none')
)
2024-08-12 12:38:43,645 Conv1D block [2], with input_dim=256, output_dim=256
2024-08-12 12:38:43,649 Residual block with conv_block=Conv1DBlock(
  (conv1d): Conv1d(256, 256, kernel_size=(3,), stride=(1,), padding=(1,))
  (norm): Normalization(
    (norm): BatchNorm1d(256, eps=1e-05, momentum=0.1, affine=True, track_running_stats=True)
  )
  (act_func): GELU(approximate='none')
), feature_block=MHABlock(
  (mha): MultiheadAttention(
    (out_proj): NonDynamicallyQuantizableLinear(in_features=256, out_features=256, bias=True)
  )
  (fc): Linear(in_features=256, out_features=256, bias=True)
  (act_func): GELU(approximate='none')
)
2024-08-12 12:38:43,652 Conv1D block [3], with input_dim=256, output_dim=256
2024-08-12 12:38:43,656 Residual block with conv_block=Conv1DBlock(
  (conv1d): Conv1d(256, 256, kernel_size=(3,), stride=(1,), padding=(1,))
  (norm): Normalization(
    (norm): BatchNorm1d(256, eps=1e-05, momentum=0.1, affine=True, track_running_stats=True)
  )
  (act_func): GELU(approximate='none')
), feature_block=MHABlock(
  (mha): MultiheadAttention(
    (out_proj): NonDynamicallyQuantizableLinear(in_features=256, out_features=256, bias=True)
  )
  (fc): Linear(in_features=256, out_features=256, bias=True)
  (act_func): GELU(approximate='none')
)
2024-08-12 12:38:43,660 Conv1D block [4], with input_dim=256, output_dim=256
2024-08-12 12:38:43,665 Residual block with conv_block=Conv1DBlock(
  (conv1d): Conv1d(256, 256, kernel_size=(3,), stride=(1,), padding=(1,))
  (norm): Normalization(
    (norm): BatchNorm1d(256, eps=1e-05, momentum=0.1, affine=True, track_running_stats=True)
  )
  (act_func): GELU(approximate='none')
), feature_block=MHABlock(
  (mha): MultiheadAttention(
    (out_proj): NonDynamicallyQuantizableLinear(in_features=256, out_features=256, bias=True)
  )
  (fc): Linear(in_features=256, out_features=256, bias=True)
  (act_func): GELU(approximate='none')
)
2024-08-12 12:38:43,667 Conv1D block [5], with input_dim=256, output_dim=256
2024-08-12 12:38:43,672 Residual block with conv_block=Conv1DBlock(
  (conv1d): Conv1d(256, 256, kernel_size=(3,), stride=(1,), padding=(1,))
  (norm): Normalization(
    (norm): BatchNorm1d(256, eps=1e-05, momentum=0.1, affine=True, track_running_stats=True)
  )
  (act_func): GELU(approximate='none')
), feature_block=MHABlock(
  (mha): MultiheadAttention(
    (out_proj): NonDynamicallyQuantizableLinear(in_features=256, out_features=256, bias=True)
  )
  (fc): Linear(in_features=256, out_features=256, bias=True)
  (act_func): GELU(approximate='none')
)
2024-08-12 12:38:54,911 Conv1D block [0], with input_dim=64, output_dim=256
2024-08-12 12:38:54,917 Residual block with conv_block=Conv1DBlock(
  (conv1d): Conv1d(64, 256, kernel_size=(3,), stride=(1,), padding=(1,))
  (norm): Normalization(
    (norm): BatchNorm1d(256, eps=1e-05, momentum=0.1, affine=True, track_running_stats=True)
  )
  (act_func): GELU(approximate='none')
), feature_block=MHABlock(
  (mha): MultiheadAttention(
    (out_proj): NonDynamicallyQuantizableLinear(in_features=256, out_features=256, bias=True)
  )
  (fc): Linear(in_features=256, out_features=256, bias=True)
  (act_func): GELU(approximate='none')
)
2024-08-12 12:38:54,920 Conv1D block [1], with input_dim=256, output_dim=256
2024-08-12 12:38:54,924 Residual block with conv_block=Conv1DBlock(
  (conv1d): Conv1d(256, 256, kernel_size=(3,), stride=(1,), padding=(1,))
  (norm): Normalization(
    (norm): BatchNorm1d(256, eps=1e-05, momentum=0.1, affine=True, track_running_stats=True)
  )
  (act_func): GELU(approximate='none')
), feature_block=MHABlock(
  (mha): MultiheadAttention(
    (out_proj): NonDynamicallyQuantizableLinear(in_features=256, out_features=256, bias=True)
  )
  (fc): Linear(in_features=256, out_features=256, bias=True)
  (act_func): GELU(approximate='none')
)
2024-08-12 12:38:54,927 Conv1D block [2], with input_dim=256, output_dim=256
2024-08-12 12:38:54,932 Residual block with conv_block=Conv1DBlock(
  (conv1d): Conv1d(256, 256, kernel_size=(3,), stride=(1,), padding=(1,))
  (norm): Normalization(
    (norm): BatchNorm1d(256, eps=1e-05, momentum=0.1, affine=True, track_running_stats=True)
  )
  (act_func): GELU(approximate='none')
), feature_block=MHABlock(
  (mha): MultiheadAttention(
    (out_proj): NonDynamicallyQuantizableLinear(in_features=256, out_features=256, bias=True)
  )
  (fc): Linear(in_features=256, out_features=256, bias=True)
  (act_func): GELU(approximate='none')
)
2024-08-12 12:38:54,935 Conv1D block [3], with input_dim=256, output_dim=256
2024-08-12 12:38:54,939 Residual block with conv_block=Conv1DBlock(
  (conv1d): Conv1d(256, 256, kernel_size=(3,), stride=(1,), padding=(1,))
  (norm): Normalization(
    (norm): BatchNorm1d(256, eps=1e-05, momentum=0.1, affine=True, track_running_stats=True)
  )
  (act_func): GELU(approximate='none')
), feature_block=MHABlock(
  (mha): MultiheadAttention(
    (out_proj): NonDynamicallyQuantizableLinear(in_features=256, out_features=256, bias=True)
  )
  (fc): Linear(in_features=256, out_features=256, bias=True)
  (act_func): GELU(approximate='none')
)
2024-08-12 12:38:54,942 Conv1D block [4], with input_dim=256, output_dim=256
2024-08-12 12:38:54,946 Residual block with conv_block=Conv1DBlock(
  (conv1d): Conv1d(256, 256, kernel_size=(3,), stride=(1,), padding=(1,))
  (norm): Normalization(
    (norm): BatchNorm1d(256, eps=1e-05, momentum=0.1, affine=True, track_running_stats=True)
  )
  (act_func): GELU(approximate='none')
), feature_block=MHABlock(
  (mha): MultiheadAttention(
    (out_proj): NonDynamicallyQuantizableLinear(in_features=256, out_features=256, bias=True)
  )
  (fc): Linear(in_features=256, out_features=256, bias=True)
  (act_func): GELU(approximate='none')
)
2024-08-12 12:38:54,949 Conv1D block [5], with input_dim=256, output_dim=256
2024-08-12 12:38:54,954 Residual block with conv_block=Conv1DBlock(
  (conv1d): Conv1d(256, 256, kernel_size=(3,), stride=(1,), padding=(1,))
  (norm): Normalization(
    (norm): BatchNorm1d(256, eps=1e-05, momentum=0.1, affine=True, track_running_stats=True)
  )
  (act_func): GELU(approximate='none')
), feature_block=MHABlock(
  (mha): MultiheadAttention(
    (out_proj): NonDynamicallyQuantizableLinear(in_features=256, out_features=256, bias=True)
  )
  (fc): Linear(in_features=256, out_features=256, bias=True)
  (act_func): GELU(approximate='none')
)
2024-08-12 12:39:05,760 Conv1D block [0], with input_dim=512, output_dim=256
2024-08-12 12:39:05,766 Residual block with conv_block=Conv1DBlock(
  (conv1d): Conv1d(512, 256, kernel_size=(3,), stride=(1,), padding=(1,))
  (norm): Normalization(
    (norm): BatchNorm1d(256, eps=1e-05, momentum=0.1, affine=True, track_running_stats=True)
  )
  (act_func): GELU(approximate='none')
), feature_block=MHABlock(
  (mha): MultiheadAttention(
    (out_proj): NonDynamicallyQuantizableLinear(in_features=256, out_features=256, bias=True)
  )
  (fc): Linear(in_features=256, out_features=256, bias=True)
  (act_func): GELU(approximate='none')
)
2024-08-12 12:39:05,768 Conv1D block [1], with input_dim=256, output_dim=256
2024-08-12 12:39:05,772 Residual block with conv_block=Conv1DBlock(
  (conv1d): Conv1d(256, 256, kernel_size=(3,), stride=(1,), padding=(1,))
  (norm): Normalization(
    (norm): BatchNorm1d(256, eps=1e-05, momentum=0.1, affine=True, track_running_stats=True)
  )
  (act_func): GELU(approximate='none')
), feature_block=MHABlock(
  (mha): MultiheadAttention(
    (out_proj): NonDynamicallyQuantizableLinear(in_features=256, out_features=256, bias=True)
  )
  (fc): Linear(in_features=256, out_features=256, bias=True)
  (act_func): GELU(approximate='none')
)
2024-08-12 12:39:05,774 Conv1D block [2], with input_dim=256, output_dim=256
2024-08-12 12:39:05,778 Residual block with conv_block=Conv1DBlock(
  (conv1d): Conv1d(256, 256, kernel_size=(3,), stride=(1,), padding=(1,))
  (norm): Normalization(
    (norm): BatchNorm1d(256, eps=1e-05, momentum=0.1, affine=True, track_running_stats=True)
  )
  (act_func): GELU(approximate='none')
), feature_block=MHABlock(
  (mha): MultiheadAttention(
    (out_proj): NonDynamicallyQuantizableLinear(in_features=256, out_features=256, bias=True)
  )
  (fc): Linear(in_features=256, out_features=256, bias=True)
  (act_func): GELU(approximate='none')
)
2024-08-12 12:39:05,780 Conv1D block [3], with input_dim=256, output_dim=256
2024-08-12 12:39:05,783 Residual block with conv_block=Conv1DBlock(
  (conv1d): Conv1d(256, 256, kernel_size=(3,), stride=(1,), padding=(1,))
  (norm): Normalization(
    (norm): BatchNorm1d(256, eps=1e-05, momentum=0.1, affine=True, track_running_stats=True)
  )
  (act_func): GELU(approximate='none')
), feature_block=MHABlock(
  (mha): MultiheadAttention(
    (out_proj): NonDynamicallyQuantizableLinear(in_features=256, out_features=256, bias=True)
  )
  (fc): Linear(in_features=256, out_features=256, bias=True)
  (act_func): GELU(approximate='none')
)
2024-08-12 12:39:05,786 Conv1D block [4], with input_dim=256, output_dim=256
2024-08-12 12:39:05,789 Residual block with conv_block=Conv1DBlock(
  (conv1d): Conv1d(256, 256, kernel_size=(3,), stride=(1,), padding=(1,))
  (norm): Normalization(
    (norm): BatchNorm1d(256, eps=1e-05, momentum=0.1, affine=True, track_running_stats=True)
  )
  (act_func): GELU(approximate='none')
), feature_block=MHABlock(
  (mha): MultiheadAttention(
    (out_proj): NonDynamicallyQuantizableLinear(in_features=256, out_features=256, bias=True)
  )
  (fc): Linear(in_features=256, out_features=256, bias=True)
  (act_func): GELU(approximate='none')
)
2024-08-12 12:39:05,792 Conv1D block [5], with input_dim=256, output_dim=256
2024-08-12 12:39:05,796 Residual block with conv_block=Conv1DBlock(
  (conv1d): Conv1d(256, 256, kernel_size=(3,), stride=(1,), padding=(1,))
  (norm): Normalization(
    (norm): BatchNorm1d(256, eps=1e-05, momentum=0.1, affine=True, track_running_stats=True)
  )
  (act_func): GELU(approximate='none')
), feature_block=MHABlock(
  (mha): MultiheadAttention(
    (out_proj): NonDynamicallyQuantizableLinear(in_features=256, out_features=256, bias=True)
  )
  (fc): Linear(in_features=256, out_features=256, bias=True)
  (act_func): GELU(approximate='none')
)
2024-08-12 12:39:23,036 Conv1D block [0], with input_dim=64, output_dim=64
2024-08-12 12:39:23,037 Residual block with conv_block=Conv1DBlock(
  (conv1d): Conv1d(64, 64, kernel_size=(3,), stride=(1,), padding=(1,))
  (norm): Normalization(
    (norm): BatchNorm1d(64, eps=1e-05, momentum=0.1, affine=True, track_running_stats=True)
  )
  (act_func): GELU(approximate='none')
), feature_block=MHABlock(
  (mha): MultiheadAttention(
    (out_proj): NonDynamicallyQuantizableLinear(in_features=64, out_features=64, bias=True)
  )
  (fc): Linear(in_features=64, out_features=64, bias=True)
  (act_func): GELU(approximate='none')
)
2024-08-12 12:39:23,038 Conv1D block [1], with input_dim=64, output_dim=64
2024-08-12 12:39:23,040 Residual block with conv_block=Conv1DBlock(
  (conv1d): Conv1d(64, 64, kernel_size=(3,), stride=(1,), padding=(1,))
  (norm): Normalization(
    (norm): BatchNorm1d(64, eps=1e-05, momentum=0.1, affine=True, track_running_stats=True)
  )
  (act_func): GELU(approximate='none')
), feature_block=MHABlock(
  (mha): MultiheadAttention(
    (out_proj): NonDynamicallyQuantizableLinear(in_features=64, out_features=64, bias=True)
  )
  (fc): Linear(in_features=64, out_features=64, bias=True)
  (act_func): GELU(approximate='none')
)
2024-08-12 12:39:25,252 Conv1D block [0], with input_dim=512, output_dim=256
2024-08-12 12:39:25,258 Residual block with conv_block=Conv1DBlock(
  (conv1d): Conv1d(512, 256, kernel_size=(3,), stride=(1,), padding=(1,))
  (norm): Normalization(
    (norm): BatchNorm1d(256, eps=1e-05, momentum=0.1, affine=True, track_running_stats=True)
  )
  (act_func): GELU(approximate='none')
), feature_block=MLPBlock(
  (mlp): Sequential(
    (0): Linear(in_features=256, out_features=512, bias=True)
    (1): GELU(approximate='none')
    (2): Linear(in_features=512, out_features=256, bias=True)
    (3): GELU(approximate='none')
  )
)
2024-08-12 12:39:25,261 Conv1D block [1], with input_dim=256, output_dim=256
2024-08-12 12:39:25,265 Residual block with conv_block=Conv1DBlock(
  (conv1d): Conv1d(256, 256, kernel_size=(3,), stride=(1,), padding=(1,))
  (norm): Normalization(
    (norm): BatchNorm1d(256, eps=1e-05, momentum=0.1, affine=True, track_running_stats=True)
  )
  (act_func): GELU(approximate='none')
), feature_block=MLPBlock(
  (mlp): Sequential(
    (0): Linear(in_features=256, out_features=512, bias=True)
    (1): GELU(approximate='none')
    (2): Linear(in_features=512, out_features=256, bias=True)
    (3): GELU(approximate='none')
  )
)
2024-08-12 12:39:25,268 Conv1D block [2], with input_dim=256, output_dim=256
2024-08-12 12:39:25,272 Residual block with conv_block=Conv1DBlock(
  (conv1d): Conv1d(256, 256, kernel_size=(3,), stride=(1,), padding=(1,))
  (norm): Normalization(
    (norm): BatchNorm1d(256, eps=1e-05, momentum=0.1, affine=True, track_running_stats=True)
  )
  (act_func): GELU(approximate='none')
), feature_block=MLPBlock(
  (mlp): Sequential(
    (0): Linear(in_features=256, out_features=512, bias=True)
    (1): GELU(approximate='none')
    (2): Linear(in_features=512, out_features=256, bias=True)
    (3): GELU(approximate='none')
  )
)
2024-08-12 12:39:25,275 Conv1D block [3], with input_dim=256, output_dim=256
2024-08-12 12:39:25,280 Residual block with conv_block=Conv1DBlock(
  (conv1d): Conv1d(256, 256, kernel_size=(3,), stride=(1,), padding=(1,))
  (norm): Normalization(
    (norm): BatchNorm1d(256, eps=1e-05, momentum=0.1, affine=True, track_running_stats=True)
  )
  (act_func): GELU(approximate='none')
), feature_block=MLPBlock(
  (mlp): Sequential(
    (0): Linear(in_features=256, out_features=512, bias=True)
    (1): GELU(approximate='none')
    (2): Linear(in_features=512, out_features=256, bias=True)
    (3): GELU(approximate='none')
  )
)
2024-08-12 12:39:25,283 Conv1D block [4], with input_dim=256, output_dim=256
2024-08-12 12:39:25,287 Residual block with conv_block=Conv1DBlock(
  (conv1d): Conv1d(256, 256, kernel_size=(3,), stride=(1,), padding=(1,))
  (norm): Normalization(
    (norm): BatchNorm1d(256, eps=1e-05, momentum=0.1, affine=True, track_running_stats=True)
  )
  (act_func): GELU(approximate='none')
), feature_block=MLPBlock(
  (mlp): Sequential(
    (0): Linear(in_features=256, out_features=512, bias=True)
    (1): GELU(approximate='none')
    (2): Linear(in_features=512, out_features=256, bias=True)
    (3): GELU(approximate='none')
  )
)
2024-08-12 12:39:25,291 Conv1D block [5], with input_dim=256, output_dim=256
2024-08-12 12:39:25,295 Residual block with conv_block=Conv1DBlock(
  (conv1d): Conv1d(256, 256, kernel_size=(3,), stride=(1,), padding=(1,))
  (norm): Normalization(
    (norm): BatchNorm1d(256, eps=1e-05, momentum=0.1, affine=True, track_running_stats=True)
  )
  (act_func): GELU(approximate='none')
), feature_block=MLPBlock(
  (mlp): Sequential(
    (0): Linear(in_features=256, out_features=512, bias=True)
    (1): GELU(approximate='none')
    (2): Linear(in_features=512, out_features=256, bias=True)
    (3): GELU(approximate='none')
  )
)
2024-08-12 12:39:38,254 Conv1D block [0], with input_dim=512, output_dim=256
2024-08-12 12:39:38,262 Residual block with conv_block=Conv1DBlock(
  (conv1d): Conv1d(512, 256, kernel_size=(3,), stride=(1,), padding=(1,))
  (norm): Normalization(
    (norm): BatchNorm1d(256, eps=1e-05, momentum=0.1, affine=True, track_running_stats=True)
  )
  (act_func): GELU(approximate='none')
), feature_block=MLPBlock(
  (mlp): Sequential(
    (0): Linear(in_features=256, out_features=512, bias=True)
    (1): GELU(approximate='none')
    (2): Linear(in_features=512, out_features=256, bias=True)
    (3): GELU(approximate='none')
  )
)
2024-08-12 12:39:38,264 Conv1D block [1], with input_dim=256, output_dim=256
2024-08-12 12:39:38,269 Residual block with conv_block=Conv1DBlock(
  (conv1d): Conv1d(256, 256, kernel_size=(3,), stride=(1,), padding=(1,))
  (norm): Normalization(
    (norm): BatchNorm1d(256, eps=1e-05, momentum=0.1, affine=True, track_running_stats=True)
  )
  (act_func): GELU(approximate='none')
), feature_block=MLPBlock(
  (mlp): Sequential(
    (0): Linear(in_features=256, out_features=512, bias=True)
    (1): GELU(approximate='none')
    (2): Linear(in_features=512, out_features=256, bias=True)
    (3): GELU(approximate='none')
  )
)
2024-08-12 12:39:38,272 Conv1D block [2], with input_dim=256, output_dim=256
2024-08-12 12:39:38,275 Residual block with conv_block=Conv1DBlock(
  (conv1d): Conv1d(256, 256, kernel_size=(3,), stride=(1,), padding=(1,))
  (norm): Normalization(
    (norm): BatchNorm1d(256, eps=1e-05, momentum=0.1, affine=True, track_running_stats=True)
  )
  (act_func): GELU(approximate='none')
), feature_block=MLPBlock(
  (mlp): Sequential(
    (0): Linear(in_features=256, out_features=512, bias=True)
    (1): GELU(approximate='none')
    (2): Linear(in_features=512, out_features=256, bias=True)
    (3): GELU(approximate='none')
  )
)
2024-08-12 12:39:38,277 Conv1D block [3], with input_dim=256, output_dim=256
2024-08-12 12:39:38,281 Residual block with conv_block=Conv1DBlock(
  (conv1d): Conv1d(256, 256, kernel_size=(3,), stride=(1,), padding=(1,))
  (norm): Normalization(
    (norm): BatchNorm1d(256, eps=1e-05, momentum=0.1, affine=True, track_running_stats=True)
  )
  (act_func): GELU(approximate='none')
), feature_block=MLPBlock(
  (mlp): Sequential(
    (0): Linear(in_features=256, out_features=512, bias=True)
    (1): GELU(approximate='none')
    (2): Linear(in_features=512, out_features=256, bias=True)
    (3): GELU(approximate='none')
  )
)
2024-08-12 12:39:38,284 Conv1D block [4], with input_dim=256, output_dim=256
2024-08-12 12:39:38,289 Residual block with conv_block=Conv1DBlock(
  (conv1d): Conv1d(256, 256, kernel_size=(3,), stride=(1,), padding=(1,))
  (norm): Normalization(
    (norm): BatchNorm1d(256, eps=1e-05, momentum=0.1, affine=True, track_running_stats=True)
  )
  (act_func): GELU(approximate='none')
), feature_block=MLPBlock(
  (mlp): Sequential(
    (0): Linear(in_features=256, out_features=512, bias=True)
    (1): GELU(approximate='none')
    (2): Linear(in_features=512, out_features=256, bias=True)
    (3): GELU(approximate='none')
  )
)
2024-08-12 12:39:38,292 Conv1D block [5], with input_dim=256, output_dim=256
2024-08-12 12:39:38,297 Residual block with conv_block=Conv1DBlock(
  (conv1d): Conv1d(256, 256, kernel_size=(3,), stride=(1,), padding=(1,))
  (norm): Normalization(
    (norm): BatchNorm1d(256, eps=1e-05, momentum=0.1, affine=True, track_running_stats=True)
  )
  (act_func): GELU(approximate='none')
), feature_block=MLPBlock(
  (mlp): Sequential(
    (0): Linear(in_features=256, out_features=512, bias=True)
    (1): GELU(approximate='none')
    (2): Linear(in_features=512, out_features=256, bias=True)
    (3): GELU(approximate='none')
  )
)
2024-08-12 12:39:47,448 Conv1D block [0], with input_dim=512, output_dim=64
2024-08-12 12:39:47,450 Residual block with conv_block=Conv1DBlock(
  (conv1d): Conv1d(512, 64, kernel_size=(3,), stride=(1,), padding=(1,))
  (norm): Normalization(
    (norm): BatchNorm1d(64, eps=1e-05, momentum=0.1, affine=True, track_running_stats=True)
  )
  (act_func): GELU(approximate='none')
), feature_block=MHABlock(
  (mha): MultiheadAttention(
    (out_proj): NonDynamicallyQuantizableLinear(in_features=64, out_features=64, bias=True)
  )
  (fc): Linear(in_features=64, out_features=64, bias=True)
  (act_func): GELU(approximate='none')
)
2024-08-12 12:39:47,451 Conv1D block [1], with input_dim=64, output_dim=64
2024-08-12 12:39:47,452 Residual block with conv_block=Conv1DBlock(
  (conv1d): Conv1d(64, 64, kernel_size=(3,), stride=(1,), padding=(1,))
  (norm): Normalization(
    (norm): BatchNorm1d(64, eps=1e-05, momentum=0.1, affine=True, track_running_stats=True)
  )
  (act_func): GELU(approximate='none')
), feature_block=MHABlock(
  (mha): MultiheadAttention(
    (out_proj): NonDynamicallyQuantizableLinear(in_features=64, out_features=64, bias=True)
  )
  (fc): Linear(in_features=64, out_features=64, bias=True)
  (act_func): GELU(approximate='none')
)
2024-08-12 12:39:47,453 Conv1D block [2], with input_dim=64, output_dim=64
2024-08-12 12:39:47,453 Residual block with conv_block=Conv1DBlock(
  (conv1d): Conv1d(64, 64, kernel_size=(3,), stride=(1,), padding=(1,))
  (norm): Normalization(
    (norm): BatchNorm1d(64, eps=1e-05, momentum=0.1, affine=True, track_running_stats=True)
  )
  (act_func): GELU(approximate='none')
), feature_block=MHABlock(
  (mha): MultiheadAttention(
    (out_proj): NonDynamicallyQuantizableLinear(in_features=64, out_features=64, bias=True)
  )
  (fc): Linear(in_features=64, out_features=64, bias=True)
  (act_func): GELU(approximate='none')
)
2024-08-12 12:39:47,454 Conv1D block [3], with input_dim=64, output_dim=64
2024-08-12 12:39:47,455 Residual block with conv_block=Conv1DBlock(
  (conv1d): Conv1d(64, 64, kernel_size=(3,), stride=(1,), padding=(1,))
  (norm): Normalization(
    (norm): BatchNorm1d(64, eps=1e-05, momentum=0.1, affine=True, track_running_stats=True)
  )
  (act_func): GELU(approximate='none')
), feature_block=MHABlock(
  (mha): MultiheadAttention(
    (out_proj): NonDynamicallyQuantizableLinear(in_features=64, out_features=64, bias=True)
  )
  (fc): Linear(in_features=64, out_features=64, bias=True)
  (act_func): GELU(approximate='none')
)
2024-08-12 12:39:47,456 Conv1D block [4], with input_dim=64, output_dim=64
2024-08-12 12:39:47,457 Residual block with conv_block=Conv1DBlock(
  (conv1d): Conv1d(64, 64, kernel_size=(3,), stride=(1,), padding=(1,))
  (norm): Normalization(
    (norm): BatchNorm1d(64, eps=1e-05, momentum=0.1, affine=True, track_running_stats=True)
  )
  (act_func): GELU(approximate='none')
), feature_block=MHABlock(
  (mha): MultiheadAttention(
    (out_proj): NonDynamicallyQuantizableLinear(in_features=64, out_features=64, bias=True)
  )
  (fc): Linear(in_features=64, out_features=64, bias=True)
  (act_func): GELU(approximate='none')
)
2024-08-12 12:39:47,457 Conv1D block [5], with input_dim=64, output_dim=64
2024-08-12 12:39:47,458 Residual block with conv_block=Conv1DBlock(
  (conv1d): Conv1d(64, 64, kernel_size=(3,), stride=(1,), padding=(1,))
  (norm): Normalization(
    (norm): BatchNorm1d(64, eps=1e-05, momentum=0.1, affine=True, track_running_stats=True)
  )
  (act_func): GELU(approximate='none')
), feature_block=MHABlock(
  (mha): MultiheadAttention(
    (out_proj): NonDynamicallyQuantizableLinear(in_features=64, out_features=64, bias=True)
  )
  (fc): Linear(in_features=64, out_features=64, bias=True)
  (act_func): GELU(approximate='none')
)
2024-08-12 12:39:49,754 Conv1D block [0], with input_dim=64, output_dim=256
2024-08-12 12:39:49,756 Residual block with conv_block=Conv1DBlock(
  (conv1d): Conv1d(64, 256, kernel_size=(3,), stride=(1,), padding=(1,))
  (norm): Normalization(
    (norm): BatchNorm1d(256, eps=1e-05, momentum=0.1, affine=True, track_running_stats=True)
  )
  (act_func): GELU(approximate='none')
), feature_block=MLPBlock(
  (mlp): Sequential(
    (0): Linear(in_features=256, out_features=128, bias=True)
    (1): GELU(approximate='none')
    (2): Linear(in_features=128, out_features=256, bias=True)
    (3): GELU(approximate='none')
  )
)
2024-08-12 12:39:49,760 Conv1D block [1], with input_dim=256, output_dim=256
2024-08-12 12:39:49,761 Residual block with conv_block=Conv1DBlock(
  (conv1d): Conv1d(256, 256, kernel_size=(3,), stride=(1,), padding=(1,))
  (norm): Normalization(
    (norm): BatchNorm1d(256, eps=1e-05, momentum=0.1, affine=True, track_running_stats=True)
  )
  (act_func): GELU(approximate='none')
), feature_block=MLPBlock(
  (mlp): Sequential(
    (0): Linear(in_features=256, out_features=128, bias=True)
    (1): GELU(approximate='none')
    (2): Linear(in_features=128, out_features=256, bias=True)
    (3): GELU(approximate='none')
  )
)
2024-08-12 12:39:57,780 Conv1D block [0], with input_dim=64, output_dim=256
2024-08-12 12:39:57,784 Residual block with conv_block=Conv1DBlock(
  (conv1d): Conv1d(64, 256, kernel_size=(3,), stride=(1,), padding=(1,))
  (norm): Normalization(
    (norm): BatchNorm1d(256, eps=1e-05, momentum=0.1, affine=True, track_running_stats=True)
  )
  (act_func): GELU(approximate='none')
), feature_block=MLPBlock(
  (mlp): Sequential(
    (0): Linear(in_features=256, out_features=512, bias=True)
    (1): GELU(approximate='none')
    (2): Linear(in_features=512, out_features=256, bias=True)
    (3): GELU(approximate='none')
  )
)
2024-08-12 12:39:57,788 Conv1D block [1], with input_dim=256, output_dim=256
2024-08-12 12:39:57,791 Residual block with conv_block=Conv1DBlock(
  (conv1d): Conv1d(256, 256, kernel_size=(3,), stride=(1,), padding=(1,))
  (norm): Normalization(
    (norm): BatchNorm1d(256, eps=1e-05, momentum=0.1, affine=True, track_running_stats=True)
  )
  (act_func): GELU(approximate='none')
), feature_block=MLPBlock(
  (mlp): Sequential(
    (0): Linear(in_features=256, out_features=512, bias=True)
    (1): GELU(approximate='none')
    (2): Linear(in_features=512, out_features=256, bias=True)
    (3): GELU(approximate='none')
  )
)
2024-08-12 12:40:19,181 Conv1D block [0], with input_dim=64, output_dim=256
2024-08-12 12:40:19,185 Residual block with conv_block=Conv1DBlock(
  (conv1d): Conv1d(64, 256, kernel_size=(3,), stride=(1,), padding=(1,))
  (norm): Normalization(
    (norm): BatchNorm1d(256, eps=1e-05, momentum=0.1, affine=True, track_running_stats=True)
  )
  (act_func): GELU(approximate='none')
), feature_block=MLPBlock(
  (mlp): Sequential(
    (0): Linear(in_features=256, out_features=512, bias=True)
    (1): GELU(approximate='none')
    (2): Linear(in_features=512, out_features=256, bias=True)
    (3): GELU(approximate='none')
  )
)
2024-08-12 12:40:19,188 Conv1D block [1], with input_dim=256, output_dim=256
2024-08-12 12:40:19,191 Residual block with conv_block=Conv1DBlock(
  (conv1d): Conv1d(256, 256, kernel_size=(3,), stride=(1,), padding=(1,))
  (norm): Normalization(
    (norm): BatchNorm1d(256, eps=1e-05, momentum=0.1, affine=True, track_running_stats=True)
  )
  (act_func): GELU(approximate='none')
), feature_block=MLPBlock(
  (mlp): Sequential(
    (0): Linear(in_features=256, out_features=512, bias=True)
    (1): GELU(approximate='none')
    (2): Linear(in_features=512, out_features=256, bias=True)
    (3): GELU(approximate='none')
  )
)
2024-08-12 12:40:30,104 Conv1D block [0], with input_dim=64, output_dim=256
2024-08-12 12:40:30,109 Residual block with conv_block=Conv1DBlock(
  (conv1d): Conv1d(64, 256, kernel_size=(3,), stride=(1,), padding=(1,))
  (norm): Normalization(
    (norm): BatchNorm1d(256, eps=1e-05, momentum=0.1, affine=True, track_running_stats=True)
  )
  (act_func): GELU(approximate='none')
), feature_block=MLPBlock(
  (mlp): Sequential(
    (0): Linear(in_features=256, out_features=512, bias=True)
    (1): GELU(approximate='none')
    (2): Linear(in_features=512, out_features=256, bias=True)
    (3): GELU(approximate='none')
  )
)
2024-08-12 12:40:30,113 Conv1D block [1], with input_dim=256, output_dim=256
2024-08-12 12:40:30,116 Residual block with conv_block=Conv1DBlock(
  (conv1d): Conv1d(256, 256, kernel_size=(3,), stride=(1,), padding=(1,))
  (norm): Normalization(
    (norm): BatchNorm1d(256, eps=1e-05, momentum=0.1, affine=True, track_running_stats=True)
  )
  (act_func): GELU(approximate='none')
), feature_block=MLPBlock(
  (mlp): Sequential(
    (0): Linear(in_features=256, out_features=512, bias=True)
    (1): GELU(approximate='none')
    (2): Linear(in_features=512, out_features=256, bias=True)
    (3): GELU(approximate='none')
  )
)
2024-08-12 12:40:30,185 Conv1D block [0], with input_dim=512, output_dim=64
2024-08-12 12:40:30,212 Residual block with conv_block=Conv1DBlock(
  (conv1d): Conv1d(512, 64, kernel_size=(3,), stride=(1,), padding=(1,))
  (norm): Normalization(
    (norm): BatchNorm1d(64, eps=1e-05, momentum=0.1, affine=True, track_running_stats=True)
  )
  (act_func): GELU(approximate='none')
), feature_block=MHABlock(
  (mha): MultiheadAttention(
    (out_proj): NonDynamicallyQuantizableLinear(in_features=64, out_features=64, bias=True)
  )
  (fc): Linear(in_features=64, out_features=64, bias=True)
  (act_func): GELU(approximate='none')
)
2024-08-12 12:40:30,217 Conv1D block [1], with input_dim=64, output_dim=64
2024-08-12 12:40:30,221 Residual block with conv_block=Conv1DBlock(
  (conv1d): Conv1d(64, 64, kernel_size=(3,), stride=(1,), padding=(1,))
  (norm): Normalization(
    (norm): BatchNorm1d(64, eps=1e-05, momentum=0.1, affine=True, track_running_stats=True)
  )
  (act_func): GELU(approximate='none')
), feature_block=MHABlock(
  (mha): MultiheadAttention(
    (out_proj): NonDynamicallyQuantizableLinear(in_features=64, out_features=64, bias=True)
  )
  (fc): Linear(in_features=64, out_features=64, bias=True)
  (act_func): GELU(approximate='none')
)
2024-08-12 12:40:34,841 Conv1D block [0], with input_dim=64, output_dim=64
2024-08-12 12:40:34,843 Residual block with conv_block=Conv1DBlock(
  (conv1d): Conv1d(64, 64, kernel_size=(3,), stride=(1,), padding=(1,))
  (norm): Normalization(
    (norm): BatchNorm1d(64, eps=1e-05, momentum=0.1, affine=True, track_running_stats=True)
  )
  (act_func): GELU(approximate='none')
), feature_block=MLPBlock(
  (mlp): Sequential(
    (0): Linear(in_features=64, out_features=512, bias=True)
    (1): GELU(approximate='none')
    (2): Linear(in_features=512, out_features=64, bias=True)
    (3): GELU(approximate='none')
  )
)
2024-08-12 12:40:34,845 Conv1D block [1], with input_dim=64, output_dim=64
2024-08-12 12:40:34,846 Residual block with conv_block=Conv1DBlock(
  (conv1d): Conv1d(64, 64, kernel_size=(3,), stride=(1,), padding=(1,))
  (norm): Normalization(
    (norm): BatchNorm1d(64, eps=1e-05, momentum=0.1, affine=True, track_running_stats=True)
  )
  (act_func): GELU(approximate='none')
), feature_block=MLPBlock(
  (mlp): Sequential(
    (0): Linear(in_features=64, out_features=512, bias=True)
    (1): GELU(approximate='none')
    (2): Linear(in_features=512, out_features=64, bias=True)
    (3): GELU(approximate='none')
  )
)
2024-08-12 12:40:34,847 Conv1D block [2], with input_dim=64, output_dim=64
2024-08-12 12:40:34,848 Residual block with conv_block=Conv1DBlock(
  (conv1d): Conv1d(64, 64, kernel_size=(3,), stride=(1,), padding=(1,))
  (norm): Normalization(
    (norm): BatchNorm1d(64, eps=1e-05, momentum=0.1, affine=True, track_running_stats=True)
  )
  (act_func): GELU(approximate='none')
), feature_block=MLPBlock(
  (mlp): Sequential(
    (0): Linear(in_features=64, out_features=512, bias=True)
    (1): GELU(approximate='none')
    (2): Linear(in_features=512, out_features=64, bias=True)
    (3): GELU(approximate='none')
  )
)
2024-08-12 12:40:34,849 Conv1D block [3], with input_dim=64, output_dim=64
2024-08-12 12:40:34,851 Residual block with conv_block=Conv1DBlock(
  (conv1d): Conv1d(64, 64, kernel_size=(3,), stride=(1,), padding=(1,))
  (norm): Normalization(
    (norm): BatchNorm1d(64, eps=1e-05, momentum=0.1, affine=True, track_running_stats=True)
  )
  (act_func): GELU(approximate='none')
), feature_block=MLPBlock(
  (mlp): Sequential(
    (0): Linear(in_features=64, out_features=512, bias=True)
    (1): GELU(approximate='none')
    (2): Linear(in_features=512, out_features=64, bias=True)
    (3): GELU(approximate='none')
  )
)
2024-08-12 12:40:34,851 Conv1D block [4], with input_dim=64, output_dim=64
2024-08-12 12:40:34,853 Residual block with conv_block=Conv1DBlock(
  (conv1d): Conv1d(64, 64, kernel_size=(3,), stride=(1,), padding=(1,))
  (norm): Normalization(
    (norm): BatchNorm1d(64, eps=1e-05, momentum=0.1, affine=True, track_running_stats=True)
  )
  (act_func): GELU(approximate='none')
), feature_block=MLPBlock(
  (mlp): Sequential(
    (0): Linear(in_features=64, out_features=512, bias=True)
    (1): GELU(approximate='none')
    (2): Linear(in_features=512, out_features=64, bias=True)
    (3): GELU(approximate='none')
  )
)
2024-08-12 12:40:34,853 Conv1D block [5], with input_dim=64, output_dim=64
2024-08-12 12:40:34,854 Residual block with conv_block=Conv1DBlock(
  (conv1d): Conv1d(64, 64, kernel_size=(3,), stride=(1,), padding=(1,))
  (norm): Normalization(
    (norm): BatchNorm1d(64, eps=1e-05, momentum=0.1, affine=True, track_running_stats=True)
  )
  (act_func): GELU(approximate='none')
), feature_block=MLPBlock(
  (mlp): Sequential(
    (0): Linear(in_features=64, out_features=512, bias=True)
    (1): GELU(approximate='none')
    (2): Linear(in_features=512, out_features=64, bias=True)
    (3): GELU(approximate='none')
  )
)
2024-08-12 12:40:59,350 Conv1D block [0], with input_dim=512, output_dim=64
2024-08-12 12:40:59,353 Residual block with conv_block=Conv1DBlock(
  (conv1d): Conv1d(512, 64, kernel_size=(3,), stride=(1,), padding=(1,))
  (norm): Normalization(
    (norm): BatchNorm1d(64, eps=1e-05, momentum=0.1, affine=True, track_running_stats=True)
  )
  (act_func): GELU(approximate='none')
), feature_block=MLPBlock(
  (mlp): Sequential(
    (0): Linear(in_features=64, out_features=128, bias=True)
    (1): GELU(approximate='none')
    (2): Linear(in_features=128, out_features=64, bias=True)
    (3): GELU(approximate='none')
  )
)
2024-08-12 12:40:59,353 Conv1D block [1], with input_dim=64, output_dim=64
2024-08-12 12:40:59,355 Residual block with conv_block=Conv1DBlock(
  (conv1d): Conv1d(64, 64, kernel_size=(3,), stride=(1,), padding=(1,))
  (norm): Normalization(
    (norm): BatchNorm1d(64, eps=1e-05, momentum=0.1, affine=True, track_running_stats=True)
  )
  (act_func): GELU(approximate='none')
), feature_block=MLPBlock(
  (mlp): Sequential(
    (0): Linear(in_features=64, out_features=128, bias=True)
    (1): GELU(approximate='none')
    (2): Linear(in_features=128, out_features=64, bias=True)
    (3): GELU(approximate='none')
  )
)
2024-08-12 12:40:59,355 Conv1D block [2], with input_dim=64, output_dim=64
2024-08-12 12:40:59,356 Residual block with conv_block=Conv1DBlock(
  (conv1d): Conv1d(64, 64, kernel_size=(3,), stride=(1,), padding=(1,))
  (norm): Normalization(
    (norm): BatchNorm1d(64, eps=1e-05, momentum=0.1, affine=True, track_running_stats=True)
  )
  (act_func): GELU(approximate='none')
), feature_block=MLPBlock(
  (mlp): Sequential(
    (0): Linear(in_features=64, out_features=128, bias=True)
    (1): GELU(approximate='none')
    (2): Linear(in_features=128, out_features=64, bias=True)
    (3): GELU(approximate='none')
  )
)
2024-08-12 12:40:59,357 Conv1D block [3], with input_dim=64, output_dim=64
2024-08-12 12:40:59,358 Residual block with conv_block=Conv1DBlock(
  (conv1d): Conv1d(64, 64, kernel_size=(3,), stride=(1,), padding=(1,))
  (norm): Normalization(
    (norm): BatchNorm1d(64, eps=1e-05, momentum=0.1, affine=True, track_running_stats=True)
  )
  (act_func): GELU(approximate='none')
), feature_block=MLPBlock(
  (mlp): Sequential(
    (0): Linear(in_features=64, out_features=128, bias=True)
    (1): GELU(approximate='none')
    (2): Linear(in_features=128, out_features=64, bias=True)
    (3): GELU(approximate='none')
  )
)
2024-08-12 12:40:59,359 Conv1D block [4], with input_dim=64, output_dim=64
2024-08-12 12:40:59,360 Residual block with conv_block=Conv1DBlock(
  (conv1d): Conv1d(64, 64, kernel_size=(3,), stride=(1,), padding=(1,))
  (norm): Normalization(
    (norm): BatchNorm1d(64, eps=1e-05, momentum=0.1, affine=True, track_running_stats=True)
  )
  (act_func): GELU(approximate='none')
), feature_block=MLPBlock(
  (mlp): Sequential(
    (0): Linear(in_features=64, out_features=128, bias=True)
    (1): GELU(approximate='none')
    (2): Linear(in_features=128, out_features=64, bias=True)
    (3): GELU(approximate='none')
  )
)
2024-08-12 12:40:59,361 Conv1D block [5], with input_dim=64, output_dim=64
2024-08-12 12:40:59,362 Residual block with conv_block=Conv1DBlock(
  (conv1d): Conv1d(64, 64, kernel_size=(3,), stride=(1,), padding=(1,))
  (norm): Normalization(
    (norm): BatchNorm1d(64, eps=1e-05, momentum=0.1, affine=True, track_running_stats=True)
  )
  (act_func): GELU(approximate='none')
), feature_block=MLPBlock(
  (mlp): Sequential(
    (0): Linear(in_features=64, out_features=128, bias=True)
    (1): GELU(approximate='none')
    (2): Linear(in_features=128, out_features=64, bias=True)
    (3): GELU(approximate='none')
  )
)
2024-08-12 12:41:04,300 Conv1D block [0], with input_dim=512, output_dim=256
2024-08-12 12:41:04,307 Residual block with conv_block=Conv1DBlock(
  (conv1d): Conv1d(512, 256, kernel_size=(3,), stride=(1,), padding=(1,))
  (norm): Normalization(
    (norm): BatchNorm1d(256, eps=1e-05, momentum=0.1, affine=True, track_running_stats=True)
  )
  (act_func): GELU(approximate='none')
), feature_block=MHABlock(
  (mha): MultiheadAttention(
    (out_proj): NonDynamicallyQuantizableLinear(in_features=256, out_features=256, bias=True)
  )
  (fc): Linear(in_features=256, out_features=256, bias=True)
  (act_func): GELU(approximate='none')
)
2024-08-12 12:41:04,312 Conv1D block [1], with input_dim=256, output_dim=256
2024-08-12 12:41:04,316 Residual block with conv_block=Conv1DBlock(
  (conv1d): Conv1d(256, 256, kernel_size=(3,), stride=(1,), padding=(1,))
  (norm): Normalization(
    (norm): BatchNorm1d(256, eps=1e-05, momentum=0.1, affine=True, track_running_stats=True)
  )
  (act_func): GELU(approximate='none')
), feature_block=MHABlock(
  (mha): MultiheadAttention(
    (out_proj): NonDynamicallyQuantizableLinear(in_features=256, out_features=256, bias=True)
  )
  (fc): Linear(in_features=256, out_features=256, bias=True)
  (act_func): GELU(approximate='none')
)
2024-08-12 12:41:04,318 Conv1D block [2], with input_dim=256, output_dim=256
2024-08-12 12:41:04,322 Residual block with conv_block=Conv1DBlock(
  (conv1d): Conv1d(256, 256, kernel_size=(3,), stride=(1,), padding=(1,))
  (norm): Normalization(
    (norm): BatchNorm1d(256, eps=1e-05, momentum=0.1, affine=True, track_running_stats=True)
  )
  (act_func): GELU(approximate='none')
), feature_block=MHABlock(
  (mha): MultiheadAttention(
    (out_proj): NonDynamicallyQuantizableLinear(in_features=256, out_features=256, bias=True)
  )
  (fc): Linear(in_features=256, out_features=256, bias=True)
  (act_func): GELU(approximate='none')
)
2024-08-12 12:41:04,324 Conv1D block [3], with input_dim=256, output_dim=256
2024-08-12 12:41:04,328 Residual block with conv_block=Conv1DBlock(
  (conv1d): Conv1d(256, 256, kernel_size=(3,), stride=(1,), padding=(1,))
  (norm): Normalization(
    (norm): BatchNorm1d(256, eps=1e-05, momentum=0.1, affine=True, track_running_stats=True)
  )
  (act_func): GELU(approximate='none')
), feature_block=MHABlock(
  (mha): MultiheadAttention(
    (out_proj): NonDynamicallyQuantizableLinear(in_features=256, out_features=256, bias=True)
  )
  (fc): Linear(in_features=256, out_features=256, bias=True)
  (act_func): GELU(approximate='none')
)
2024-08-12 12:41:04,330 Conv1D block [4], with input_dim=256, output_dim=256
2024-08-12 12:41:04,334 Residual block with conv_block=Conv1DBlock(
  (conv1d): Conv1d(256, 256, kernel_size=(3,), stride=(1,), padding=(1,))
  (norm): Normalization(
    (norm): BatchNorm1d(256, eps=1e-05, momentum=0.1, affine=True, track_running_stats=True)
  )
  (act_func): GELU(approximate='none')
), feature_block=MHABlock(
  (mha): MultiheadAttention(
    (out_proj): NonDynamicallyQuantizableLinear(in_features=256, out_features=256, bias=True)
  )
  (fc): Linear(in_features=256, out_features=256, bias=True)
  (act_func): GELU(approximate='none')
)
2024-08-12 12:41:04,336 Conv1D block [5], with input_dim=256, output_dim=256
2024-08-12 12:41:04,342 Residual block with conv_block=Conv1DBlock(
  (conv1d): Conv1d(256, 256, kernel_size=(3,), stride=(1,), padding=(1,))
  (norm): Normalization(
    (norm): BatchNorm1d(256, eps=1e-05, momentum=0.1, affine=True, track_running_stats=True)
  )
  (act_func): GELU(approximate='none')
), feature_block=MHABlock(
  (mha): MultiheadAttention(
    (out_proj): NonDynamicallyQuantizableLinear(in_features=256, out_features=256, bias=True)
  )
  (fc): Linear(in_features=256, out_features=256, bias=True)
  (act_func): GELU(approximate='none')
)
2024-08-12 12:41:08,699 Conv1D block [0], with input_dim=512, output_dim=64
2024-08-12 12:41:08,703 Residual block with conv_block=Conv1DBlock(
  (conv1d): Conv1d(512, 64, kernel_size=(3,), stride=(1,), padding=(1,))
  (norm): Normalization(
    (norm): BatchNorm1d(64, eps=1e-05, momentum=0.1, affine=True, track_running_stats=True)
  )
  (act_func): GELU(approximate='none')
), feature_block=MHABlock(
  (mha): MultiheadAttention(
    (out_proj): NonDynamicallyQuantizableLinear(in_features=64, out_features=64, bias=True)
  )
  (fc): Linear(in_features=64, out_features=64, bias=True)
  (act_func): GELU(approximate='none')
)
2024-08-12 12:41:08,703 Conv1D block [1], with input_dim=64, output_dim=64
2024-08-12 12:41:08,705 Residual block with conv_block=Conv1DBlock(
  (conv1d): Conv1d(64, 64, kernel_size=(3,), stride=(1,), padding=(1,))
  (norm): Normalization(
    (norm): BatchNorm1d(64, eps=1e-05, momentum=0.1, affine=True, track_running_stats=True)
  )
  (act_func): GELU(approximate='none')
), feature_block=MHABlock(
  (mha): MultiheadAttention(
    (out_proj): NonDynamicallyQuantizableLinear(in_features=64, out_features=64, bias=True)
  )
  (fc): Linear(in_features=64, out_features=64, bias=True)
  (act_func): GELU(approximate='none')
)
2024-08-12 12:41:08,705 Conv1D block [2], with input_dim=64, output_dim=64
2024-08-12 12:41:08,706 Residual block with conv_block=Conv1DBlock(
  (conv1d): Conv1d(64, 64, kernel_size=(3,), stride=(1,), padding=(1,))
  (norm): Normalization(
    (norm): BatchNorm1d(64, eps=1e-05, momentum=0.1, affine=True, track_running_stats=True)
  )
  (act_func): GELU(approximate='none')
), feature_block=MHABlock(
  (mha): MultiheadAttention(
    (out_proj): NonDynamicallyQuantizableLinear(in_features=64, out_features=64, bias=True)
  )
  (fc): Linear(in_features=64, out_features=64, bias=True)
  (act_func): GELU(approximate='none')
)
2024-08-12 12:41:08,707 Conv1D block [3], with input_dim=64, output_dim=64
2024-08-12 12:41:08,708 Residual block with conv_block=Conv1DBlock(
  (conv1d): Conv1d(64, 64, kernel_size=(3,), stride=(1,), padding=(1,))
  (norm): Normalization(
    (norm): BatchNorm1d(64, eps=1e-05, momentum=0.1, affine=True, track_running_stats=True)
  )
  (act_func): GELU(approximate='none')
), feature_block=MHABlock(
  (mha): MultiheadAttention(
    (out_proj): NonDynamicallyQuantizableLinear(in_features=64, out_features=64, bias=True)
  )
  (fc): Linear(in_features=64, out_features=64, bias=True)
  (act_func): GELU(approximate='none')
)
2024-08-12 12:41:08,709 Conv1D block [4], with input_dim=64, output_dim=64
2024-08-12 12:41:08,710 Residual block with conv_block=Conv1DBlock(
  (conv1d): Conv1d(64, 64, kernel_size=(3,), stride=(1,), padding=(1,))
  (norm): Normalization(
    (norm): BatchNorm1d(64, eps=1e-05, momentum=0.1, affine=True, track_running_stats=True)
  )
  (act_func): GELU(approximate='none')
), feature_block=MHABlock(
  (mha): MultiheadAttention(
    (out_proj): NonDynamicallyQuantizableLinear(in_features=64, out_features=64, bias=True)
  )
  (fc): Linear(in_features=64, out_features=64, bias=True)
  (act_func): GELU(approximate='none')
)
2024-08-12 12:41:08,710 Conv1D block [5], with input_dim=64, output_dim=64
2024-08-12 12:41:08,711 Residual block with conv_block=Conv1DBlock(
  (conv1d): Conv1d(64, 64, kernel_size=(3,), stride=(1,), padding=(1,))
  (norm): Normalization(
    (norm): BatchNorm1d(64, eps=1e-05, momentum=0.1, affine=True, track_running_stats=True)
  )
  (act_func): GELU(approximate='none')
), feature_block=MHABlock(
  (mha): MultiheadAttention(
    (out_proj): NonDynamicallyQuantizableLinear(in_features=64, out_features=64, bias=True)
  )
  (fc): Linear(in_features=64, out_features=64, bias=True)
  (act_func): GELU(approximate='none')
)
2024-08-12 12:41:17,728 Conv1D block [0], with input_dim=512, output_dim=256
2024-08-12 12:41:17,731 Residual block with conv_block=Conv1DBlock(
  (conv1d): Conv1d(512, 256, kernel_size=(3,), stride=(1,), padding=(1,))
  (norm): Normalization(
    (norm): BatchNorm1d(256, eps=1e-05, momentum=0.1, affine=True, track_running_stats=True)
  )
  (act_func): GELU(approximate='none')
), feature_block=MLPBlock(
  (mlp): Sequential(
    (0): Linear(in_features=256, out_features=128, bias=True)
    (1): GELU(approximate='none')
    (2): Linear(in_features=128, out_features=256, bias=True)
    (3): GELU(approximate='none')
  )
)
2024-08-12 12:41:17,733 Conv1D block [1], with input_dim=256, output_dim=256
2024-08-12 12:41:17,734 Residual block with conv_block=Conv1DBlock(
  (conv1d): Conv1d(256, 256, kernel_size=(3,), stride=(1,), padding=(1,))
  (norm): Normalization(
    (norm): BatchNorm1d(256, eps=1e-05, momentum=0.1, affine=True, track_running_stats=True)
  )
  (act_func): GELU(approximate='none')
), feature_block=MLPBlock(
  (mlp): Sequential(
    (0): Linear(in_features=256, out_features=128, bias=True)
    (1): GELU(approximate='none')
    (2): Linear(in_features=128, out_features=256, bias=True)
    (3): GELU(approximate='none')
  )
)
2024-08-12 12:41:17,735 Conv1D block [2], with input_dim=256, output_dim=256
2024-08-12 12:41:17,736 Residual block with conv_block=Conv1DBlock(
  (conv1d): Conv1d(256, 256, kernel_size=(3,), stride=(1,), padding=(1,))
  (norm): Normalization(
    (norm): BatchNorm1d(256, eps=1e-05, momentum=0.1, affine=True, track_running_stats=True)
  )
  (act_func): GELU(approximate='none')
), feature_block=MLPBlock(
  (mlp): Sequential(
    (0): Linear(in_features=256, out_features=128, bias=True)
    (1): GELU(approximate='none')
    (2): Linear(in_features=128, out_features=256, bias=True)
    (3): GELU(approximate='none')
  )
)
2024-08-12 12:41:17,738 Conv1D block [3], with input_dim=256, output_dim=256
2024-08-12 12:41:17,739 Residual block with conv_block=Conv1DBlock(
  (conv1d): Conv1d(256, 256, kernel_size=(3,), stride=(1,), padding=(1,))
  (norm): Normalization(
    (norm): BatchNorm1d(256, eps=1e-05, momentum=0.1, affine=True, track_running_stats=True)
  )
  (act_func): GELU(approximate='none')
), feature_block=MLPBlock(
  (mlp): Sequential(
    (0): Linear(in_features=256, out_features=128, bias=True)
    (1): GELU(approximate='none')
    (2): Linear(in_features=128, out_features=256, bias=True)
    (3): GELU(approximate='none')
  )
)
2024-08-12 12:41:17,742 Conv1D block [4], with input_dim=256, output_dim=256
2024-08-12 12:41:17,743 Residual block with conv_block=Conv1DBlock(
  (conv1d): Conv1d(256, 256, kernel_size=(3,), stride=(1,), padding=(1,))
  (norm): Normalization(
    (norm): BatchNorm1d(256, eps=1e-05, momentum=0.1, affine=True, track_running_stats=True)
  )
  (act_func): GELU(approximate='none')
), feature_block=MLPBlock(
  (mlp): Sequential(
    (0): Linear(in_features=256, out_features=128, bias=True)
    (1): GELU(approximate='none')
    (2): Linear(in_features=128, out_features=256, bias=True)
    (3): GELU(approximate='none')
  )
)
2024-08-12 12:41:17,746 Conv1D block [5], with input_dim=256, output_dim=256
2024-08-12 12:41:17,747 Residual block with conv_block=Conv1DBlock(
  (conv1d): Conv1d(256, 256, kernel_size=(3,), stride=(1,), padding=(1,))
  (norm): Normalization(
    (norm): BatchNorm1d(256, eps=1e-05, momentum=0.1, affine=True, track_running_stats=True)
  )
  (act_func): GELU(approximate='none')
), feature_block=MLPBlock(
  (mlp): Sequential(
    (0): Linear(in_features=256, out_features=128, bias=True)
    (1): GELU(approximate='none')
    (2): Linear(in_features=128, out_features=256, bias=True)
    (3): GELU(approximate='none')
  )
)
2024-08-12 12:41:19,304 Conv1D block [0], with input_dim=64, output_dim=256
2024-08-12 12:41:19,308 Residual block with conv_block=Conv1DBlock(
  (conv1d): Conv1d(64, 256, kernel_size=(3,), stride=(1,), padding=(1,))
  (norm): Normalization(
    (norm): BatchNorm1d(256, eps=1e-05, momentum=0.1, affine=True, track_running_stats=True)
  )
  (act_func): GELU(approximate='none')
), feature_block=MLPBlock(
  (mlp): Sequential(
    (0): Linear(in_features=256, out_features=512, bias=True)
    (1): GELU(approximate='none')
    (2): Linear(in_features=512, out_features=256, bias=True)
    (3): GELU(approximate='none')
  )
)
2024-08-12 12:41:19,310 Conv1D block [1], with input_dim=256, output_dim=256
2024-08-12 12:41:19,316 Residual block with conv_block=Conv1DBlock(
  (conv1d): Conv1d(256, 256, kernel_size=(3,), stride=(1,), padding=(1,))
  (norm): Normalization(
    (norm): BatchNorm1d(256, eps=1e-05, momentum=0.1, affine=True, track_running_stats=True)
  )
  (act_func): GELU(approximate='none')
), feature_block=MLPBlock(
  (mlp): Sequential(
    (0): Linear(in_features=256, out_features=512, bias=True)
    (1): GELU(approximate='none')
    (2): Linear(in_features=512, out_features=256, bias=True)
    (3): GELU(approximate='none')
  )
)
2024-08-12 12:41:19,323 Conv1D block [2], with input_dim=256, output_dim=256
2024-08-12 12:41:19,332 Residual block with conv_block=Conv1DBlock(
  (conv1d): Conv1d(256, 256, kernel_size=(3,), stride=(1,), padding=(1,))
  (norm): Normalization(
    (norm): BatchNorm1d(256, eps=1e-05, momentum=0.1, affine=True, track_running_stats=True)
  )
  (act_func): GELU(approximate='none')
), feature_block=MLPBlock(
  (mlp): Sequential(
    (0): Linear(in_features=256, out_features=512, bias=True)
    (1): GELU(approximate='none')
    (2): Linear(in_features=512, out_features=256, bias=True)
    (3): GELU(approximate='none')
  )
)
2024-08-12 12:41:19,336 Conv1D block [3], with input_dim=256, output_dim=256
2024-08-12 12:41:19,341 Residual block with conv_block=Conv1DBlock(
  (conv1d): Conv1d(256, 256, kernel_size=(3,), stride=(1,), padding=(1,))
  (norm): Normalization(
    (norm): BatchNorm1d(256, eps=1e-05, momentum=0.1, affine=True, track_running_stats=True)
  )
  (act_func): GELU(approximate='none')
), feature_block=MLPBlock(
  (mlp): Sequential(
    (0): Linear(in_features=256, out_features=512, bias=True)
    (1): GELU(approximate='none')
    (2): Linear(in_features=512, out_features=256, bias=True)
    (3): GELU(approximate='none')
  )
)
2024-08-12 12:41:19,346 Conv1D block [4], with input_dim=256, output_dim=256
2024-08-12 12:41:19,351 Residual block with conv_block=Conv1DBlock(
  (conv1d): Conv1d(256, 256, kernel_size=(3,), stride=(1,), padding=(1,))
  (norm): Normalization(
    (norm): BatchNorm1d(256, eps=1e-05, momentum=0.1, affine=True, track_running_stats=True)
  )
  (act_func): GELU(approximate='none')
), feature_block=MLPBlock(
  (mlp): Sequential(
    (0): Linear(in_features=256, out_features=512, bias=True)
    (1): GELU(approximate='none')
    (2): Linear(in_features=512, out_features=256, bias=True)
    (3): GELU(approximate='none')
  )
)
2024-08-12 12:41:19,355 Conv1D block [5], with input_dim=256, output_dim=256
2024-08-12 12:41:19,360 Residual block with conv_block=Conv1DBlock(
  (conv1d): Conv1d(256, 256, kernel_size=(3,), stride=(1,), padding=(1,))
  (norm): Normalization(
    (norm): BatchNorm1d(256, eps=1e-05, momentum=0.1, affine=True, track_running_stats=True)
  )
  (act_func): GELU(approximate='none')
), feature_block=MLPBlock(
  (mlp): Sequential(
    (0): Linear(in_features=256, out_features=512, bias=True)
    (1): GELU(approximate='none')
    (2): Linear(in_features=512, out_features=256, bias=True)
    (3): GELU(approximate='none')
  )
)
2024-08-12 12:41:28,549 Conv1D block [0], with input_dim=64, output_dim=64
2024-08-12 12:41:28,551 Residual block with conv_block=Conv1DBlock(
  (conv1d): Conv1d(64, 64, kernel_size=(3,), stride=(1,), padding=(1,))
  (norm): Normalization(
    (norm): BatchNorm1d(64, eps=1e-05, momentum=0.1, affine=True, track_running_stats=True)
  )
  (act_func): GELU(approximate='none')
), feature_block=MHABlock(
  (mha): MultiheadAttention(
    (out_proj): NonDynamicallyQuantizableLinear(in_features=64, out_features=64, bias=True)
  )
  (fc): Linear(in_features=64, out_features=64, bias=True)
  (act_func): GELU(approximate='none')
)
2024-08-12 12:41:28,551 Conv1D block [1], with input_dim=64, output_dim=64
2024-08-12 12:41:28,552 Residual block with conv_block=Conv1DBlock(
  (conv1d): Conv1d(64, 64, kernel_size=(3,), stride=(1,), padding=(1,))
  (norm): Normalization(
    (norm): BatchNorm1d(64, eps=1e-05, momentum=0.1, affine=True, track_running_stats=True)
  )
  (act_func): GELU(approximate='none')
), feature_block=MHABlock(
  (mha): MultiheadAttention(
    (out_proj): NonDynamicallyQuantizableLinear(in_features=64, out_features=64, bias=True)
  )
  (fc): Linear(in_features=64, out_features=64, bias=True)
  (act_func): GELU(approximate='none')
)
2024-08-12 12:41:57,935 Conv1D block [0], with input_dim=64, output_dim=256
2024-08-12 12:41:57,938 Residual block with conv_block=Conv1DBlock(
  (conv1d): Conv1d(64, 256, kernel_size=(3,), stride=(1,), padding=(1,))
  (norm): Normalization(
    (norm): BatchNorm1d(256, eps=1e-05, momentum=0.1, affine=True, track_running_stats=True)
  )
  (act_func): GELU(approximate='none')
), feature_block=MLPBlock(
  (mlp): Sequential(
    (0): Linear(in_features=256, out_features=512, bias=True)
    (1): GELU(approximate='none')
    (2): Linear(in_features=512, out_features=256, bias=True)
    (3): GELU(approximate='none')
  )
)
2024-08-12 12:41:57,941 Conv1D block [1], with input_dim=256, output_dim=256
2024-08-12 12:41:57,946 Residual block with conv_block=Conv1DBlock(
  (conv1d): Conv1d(256, 256, kernel_size=(3,), stride=(1,), padding=(1,))
  (norm): Normalization(
    (norm): BatchNorm1d(256, eps=1e-05, momentum=0.1, affine=True, track_running_stats=True)
  )
  (act_func): GELU(approximate='none')
), feature_block=MLPBlock(
  (mlp): Sequential(
    (0): Linear(in_features=256, out_features=512, bias=True)
    (1): GELU(approximate='none')
    (2): Linear(in_features=512, out_features=256, bias=True)
    (3): GELU(approximate='none')
  )
)
2024-08-12 12:41:57,949 Conv1D block [2], with input_dim=256, output_dim=256
2024-08-12 12:41:57,955 Residual block with conv_block=Conv1DBlock(
  (conv1d): Conv1d(256, 256, kernel_size=(3,), stride=(1,), padding=(1,))
  (norm): Normalization(
    (norm): BatchNorm1d(256, eps=1e-05, momentum=0.1, affine=True, track_running_stats=True)
  )
  (act_func): GELU(approximate='none')
), feature_block=MLPBlock(
  (mlp): Sequential(
    (0): Linear(in_features=256, out_features=512, bias=True)
    (1): GELU(approximate='none')
    (2): Linear(in_features=512, out_features=256, bias=True)
    (3): GELU(approximate='none')
  )
)
2024-08-12 12:41:57,957 Conv1D block [3], with input_dim=256, output_dim=256
2024-08-12 12:41:57,960 Residual block with conv_block=Conv1DBlock(
  (conv1d): Conv1d(256, 256, kernel_size=(3,), stride=(1,), padding=(1,))
  (norm): Normalization(
    (norm): BatchNorm1d(256, eps=1e-05, momentum=0.1, affine=True, track_running_stats=True)
  )
  (act_func): GELU(approximate='none')
), feature_block=MLPBlock(
  (mlp): Sequential(
    (0): Linear(in_features=256, out_features=512, bias=True)
    (1): GELU(approximate='none')
    (2): Linear(in_features=512, out_features=256, bias=True)
    (3): GELU(approximate='none')
  )
)
2024-08-12 12:41:57,963 Conv1D block [4], with input_dim=256, output_dim=256
2024-08-12 12:41:57,966 Residual block with conv_block=Conv1DBlock(
  (conv1d): Conv1d(256, 256, kernel_size=(3,), stride=(1,), padding=(1,))
  (norm): Normalization(
    (norm): BatchNorm1d(256, eps=1e-05, momentum=0.1, affine=True, track_running_stats=True)
  )
  (act_func): GELU(approximate='none')
), feature_block=MLPBlock(
  (mlp): Sequential(
    (0): Linear(in_features=256, out_features=512, bias=True)
    (1): GELU(approximate='none')
    (2): Linear(in_features=512, out_features=256, bias=True)
    (3): GELU(approximate='none')
  )
)
2024-08-12 12:41:57,968 Conv1D block [5], with input_dim=256, output_dim=256
2024-08-12 12:41:57,972 Residual block with conv_block=Conv1DBlock(
  (conv1d): Conv1d(256, 256, kernel_size=(3,), stride=(1,), padding=(1,))
  (norm): Normalization(
    (norm): BatchNorm1d(256, eps=1e-05, momentum=0.1, affine=True, track_running_stats=True)
  )
  (act_func): GELU(approximate='none')
), feature_block=MLPBlock(
  (mlp): Sequential(
    (0): Linear(in_features=256, out_features=512, bias=True)
    (1): GELU(approximate='none')
    (2): Linear(in_features=512, out_features=256, bias=True)
    (3): GELU(approximate='none')
  )
)
2024-08-12 12:42:02,675 Conv1D block [0], with input_dim=512, output_dim=64
2024-08-12 12:42:02,677 Residual block with conv_block=Conv1DBlock(
  (conv1d): Conv1d(512, 64, kernel_size=(3,), stride=(1,), padding=(1,))
  (norm): Normalization(
    (norm): BatchNorm1d(64, eps=1e-05, momentum=0.1, affine=True, track_running_stats=True)
  )
  (act_func): GELU(approximate='none')
), feature_block=MHABlock(
  (mha): MultiheadAttention(
    (out_proj): NonDynamicallyQuantizableLinear(in_features=64, out_features=64, bias=True)
  )
  (fc): Linear(in_features=64, out_features=64, bias=True)
  (act_func): GELU(approximate='none')
)
2024-08-12 12:42:02,677 Conv1D block [1], with input_dim=64, output_dim=64
2024-08-12 12:42:02,678 Residual block with conv_block=Conv1DBlock(
  (conv1d): Conv1d(64, 64, kernel_size=(3,), stride=(1,), padding=(1,))
  (norm): Normalization(
    (norm): BatchNorm1d(64, eps=1e-05, momentum=0.1, affine=True, track_running_stats=True)
  )
  (act_func): GELU(approximate='none')
), feature_block=MHABlock(
  (mha): MultiheadAttention(
    (out_proj): NonDynamicallyQuantizableLinear(in_features=64, out_features=64, bias=True)
  )
  (fc): Linear(in_features=64, out_features=64, bias=True)
  (act_func): GELU(approximate='none')
)
2024-08-12 12:42:23,171 Conv1D block [0], with input_dim=64, output_dim=64
2024-08-12 12:42:23,172 Residual block with conv_block=Conv1DBlock(
  (conv1d): Conv1d(64, 64, kernel_size=(3,), stride=(1,), padding=(1,))
  (norm): Normalization(
    (norm): BatchNorm1d(64, eps=1e-05, momentum=0.1, affine=True, track_running_stats=True)
  )
  (act_func): GELU(approximate='none')
), feature_block=MHABlock(
  (mha): MultiheadAttention(
    (out_proj): NonDynamicallyQuantizableLinear(in_features=64, out_features=64, bias=True)
  )
  (fc): Linear(in_features=64, out_features=64, bias=True)
  (act_func): GELU(approximate='none')
)
2024-08-12 12:42:23,172 Conv1D block [1], with input_dim=64, output_dim=64
2024-08-12 12:42:23,173 Residual block with conv_block=Conv1DBlock(
  (conv1d): Conv1d(64, 64, kernel_size=(3,), stride=(1,), padding=(1,))
  (norm): Normalization(
    (norm): BatchNorm1d(64, eps=1e-05, momentum=0.1, affine=True, track_running_stats=True)
  )
  (act_func): GELU(approximate='none')
), feature_block=MHABlock(
  (mha): MultiheadAttention(
    (out_proj): NonDynamicallyQuantizableLinear(in_features=64, out_features=64, bias=True)
  )
  (fc): Linear(in_features=64, out_features=64, bias=True)
  (act_func): GELU(approximate='none')
)
2024-08-12 12:42:27,411 Conv1D block [0], with input_dim=512, output_dim=256
2024-08-12 12:42:27,418 Residual block with conv_block=Conv1DBlock(
  (conv1d): Conv1d(512, 256, kernel_size=(3,), stride=(1,), padding=(1,))
  (norm): Normalization(
    (norm): BatchNorm1d(256, eps=1e-05, momentum=0.1, affine=True, track_running_stats=True)
  )
  (act_func): GELU(approximate='none')
), feature_block=MHABlock(
  (mha): MultiheadAttention(
    (out_proj): NonDynamicallyQuantizableLinear(in_features=256, out_features=256, bias=True)
  )
  (fc): Linear(in_features=256, out_features=256, bias=True)
  (act_func): GELU(approximate='none')
)
2024-08-12 12:42:27,421 Conv1D block [1], with input_dim=256, output_dim=256
2024-08-12 12:42:27,426 Residual block with conv_block=Conv1DBlock(
  (conv1d): Conv1d(256, 256, kernel_size=(3,), stride=(1,), padding=(1,))
  (norm): Normalization(
    (norm): BatchNorm1d(256, eps=1e-05, momentum=0.1, affine=True, track_running_stats=True)
  )
  (act_func): GELU(approximate='none')
), feature_block=MHABlock(
  (mha): MultiheadAttention(
    (out_proj): NonDynamicallyQuantizableLinear(in_features=256, out_features=256, bias=True)
  )
  (fc): Linear(in_features=256, out_features=256, bias=True)
  (act_func): GELU(approximate='none')
)
2024-08-12 12:42:27,429 Conv1D block [2], with input_dim=256, output_dim=256
2024-08-12 12:42:27,432 Residual block with conv_block=Conv1DBlock(
  (conv1d): Conv1d(256, 256, kernel_size=(3,), stride=(1,), padding=(1,))
  (norm): Normalization(
    (norm): BatchNorm1d(256, eps=1e-05, momentum=0.1, affine=True, track_running_stats=True)
  )
  (act_func): GELU(approximate='none')
), feature_block=MHABlock(
  (mha): MultiheadAttention(
    (out_proj): NonDynamicallyQuantizableLinear(in_features=256, out_features=256, bias=True)
  )
  (fc): Linear(in_features=256, out_features=256, bias=True)
  (act_func): GELU(approximate='none')
)
2024-08-12 12:42:27,434 Conv1D block [3], with input_dim=256, output_dim=256
2024-08-12 12:42:27,438 Residual block with conv_block=Conv1DBlock(
  (conv1d): Conv1d(256, 256, kernel_size=(3,), stride=(1,), padding=(1,))
  (norm): Normalization(
    (norm): BatchNorm1d(256, eps=1e-05, momentum=0.1, affine=True, track_running_stats=True)
  )
  (act_func): GELU(approximate='none')
), feature_block=MHABlock(
  (mha): MultiheadAttention(
    (out_proj): NonDynamicallyQuantizableLinear(in_features=256, out_features=256, bias=True)
  )
  (fc): Linear(in_features=256, out_features=256, bias=True)
  (act_func): GELU(approximate='none')
)
2024-08-12 12:42:27,440 Conv1D block [4], with input_dim=256, output_dim=256
2024-08-12 12:42:27,443 Residual block with conv_block=Conv1DBlock(
  (conv1d): Conv1d(256, 256, kernel_size=(3,), stride=(1,), padding=(1,))
  (norm): Normalization(
    (norm): BatchNorm1d(256, eps=1e-05, momentum=0.1, affine=True, track_running_stats=True)
  )
  (act_func): GELU(approximate='none')
), feature_block=MHABlock(
  (mha): MultiheadAttention(
    (out_proj): NonDynamicallyQuantizableLinear(in_features=256, out_features=256, bias=True)
  )
  (fc): Linear(in_features=256, out_features=256, bias=True)
  (act_func): GELU(approximate='none')
)
2024-08-12 12:42:27,445 Conv1D block [5], with input_dim=256, output_dim=256
2024-08-12 12:42:27,449 Residual block with conv_block=Conv1DBlock(
  (conv1d): Conv1d(256, 256, kernel_size=(3,), stride=(1,), padding=(1,))
  (norm): Normalization(
    (norm): BatchNorm1d(256, eps=1e-05, momentum=0.1, affine=True, track_running_stats=True)
  )
  (act_func): GELU(approximate='none')
), feature_block=MHABlock(
  (mha): MultiheadAttention(
    (out_proj): NonDynamicallyQuantizableLinear(in_features=256, out_features=256, bias=True)
  )
  (fc): Linear(in_features=256, out_features=256, bias=True)
  (act_func): GELU(approximate='none')
)
2024-08-12 12:42:38,834 Conv1D block [0], with input_dim=512, output_dim=64
2024-08-12 12:42:38,837 Residual block with conv_block=Conv1DBlock(
  (conv1d): Conv1d(512, 64, kernel_size=(3,), stride=(1,), padding=(1,))
  (norm): Normalization(
    (norm): BatchNorm1d(64, eps=1e-05, momentum=0.1, affine=True, track_running_stats=True)
  )
  (act_func): GELU(approximate='none')
), feature_block=MHABlock(
  (mha): MultiheadAttention(
    (out_proj): NonDynamicallyQuantizableLinear(in_features=64, out_features=64, bias=True)
  )
  (fc): Linear(in_features=64, out_features=64, bias=True)
  (act_func): GELU(approximate='none')
)
2024-08-12 12:42:38,838 Conv1D block [1], with input_dim=64, output_dim=64
2024-08-12 12:42:38,839 Residual block with conv_block=Conv1DBlock(
  (conv1d): Conv1d(64, 64, kernel_size=(3,), stride=(1,), padding=(1,))
  (norm): Normalization(
    (norm): BatchNorm1d(64, eps=1e-05, momentum=0.1, affine=True, track_running_stats=True)
  )
  (act_func): GELU(approximate='none')
), feature_block=MHABlock(
  (mha): MultiheadAttention(
    (out_proj): NonDynamicallyQuantizableLinear(in_features=64, out_features=64, bias=True)
  )
  (fc): Linear(in_features=64, out_features=64, bias=True)
  (act_func): GELU(approximate='none')
)
2024-08-12 12:42:45,812 Conv1D block [0], with input_dim=512, output_dim=64
2024-08-12 12:42:45,814 Residual block with conv_block=Conv1DBlock(
  (conv1d): Conv1d(512, 64, kernel_size=(3,), stride=(1,), padding=(1,))
  (norm): Normalization(
    (norm): BatchNorm1d(64, eps=1e-05, momentum=0.1, affine=True, track_running_stats=True)
  )
  (act_func): GELU(approximate='none')
), feature_block=MHABlock(
  (mha): MultiheadAttention(
    (out_proj): NonDynamicallyQuantizableLinear(in_features=64, out_features=64, bias=True)
  )
  (fc): Linear(in_features=64, out_features=64, bias=True)
  (act_func): GELU(approximate='none')
)
2024-08-12 12:42:45,814 Conv1D block [1], with input_dim=64, output_dim=64
2024-08-12 12:42:45,815 Residual block with conv_block=Conv1DBlock(
  (conv1d): Conv1d(64, 64, kernel_size=(3,), stride=(1,), padding=(1,))
  (norm): Normalization(
    (norm): BatchNorm1d(64, eps=1e-05, momentum=0.1, affine=True, track_running_stats=True)
  )
  (act_func): GELU(approximate='none')
), feature_block=MHABlock(
  (mha): MultiheadAttention(
    (out_proj): NonDynamicallyQuantizableLinear(in_features=64, out_features=64, bias=True)
  )
  (fc): Linear(in_features=64, out_features=64, bias=True)
  (act_func): GELU(approximate='none')
)
2024-08-12 12:43:48,916 Conv1D block [0], with input_dim=512, output_dim=64
2024-08-12 12:43:48,919 Residual block with conv_block=Conv1DBlock(
  (conv1d): Conv1d(512, 64, kernel_size=(3,), stride=(1,), padding=(1,))
  (norm): Normalization(
    (norm): BatchNorm1d(64, eps=1e-05, momentum=0.1, affine=True, track_running_stats=True)
  )
  (act_func): GELU(approximate='none')
), feature_block=MLPBlock(
  (mlp): Sequential(
    (0): Linear(in_features=64, out_features=128, bias=True)
    (1): GELU(approximate='none')
    (2): Linear(in_features=128, out_features=64, bias=True)
    (3): GELU(approximate='none')
  )
)
2024-08-12 12:43:48,920 Conv1D block [1], with input_dim=64, output_dim=64
2024-08-12 12:43:48,921 Residual block with conv_block=Conv1DBlock(
  (conv1d): Conv1d(64, 64, kernel_size=(3,), stride=(1,), padding=(1,))
  (norm): Normalization(
    (norm): BatchNorm1d(64, eps=1e-05, momentum=0.1, affine=True, track_running_stats=True)
  )
  (act_func): GELU(approximate='none')
), feature_block=MLPBlock(
  (mlp): Sequential(
    (0): Linear(in_features=64, out_features=128, bias=True)
    (1): GELU(approximate='none')
    (2): Linear(in_features=128, out_features=64, bias=True)
    (3): GELU(approximate='none')
  )
)
2024-08-12 12:43:48,922 Conv1D block [2], with input_dim=64, output_dim=64
2024-08-12 12:43:48,923 Residual block with conv_block=Conv1DBlock(
  (conv1d): Conv1d(64, 64, kernel_size=(3,), stride=(1,), padding=(1,))
  (norm): Normalization(
    (norm): BatchNorm1d(64, eps=1e-05, momentum=0.1, affine=True, track_running_stats=True)
  )
  (act_func): GELU(approximate='none')
), feature_block=MLPBlock(
  (mlp): Sequential(
    (0): Linear(in_features=64, out_features=128, bias=True)
    (1): GELU(approximate='none')
    (2): Linear(in_features=128, out_features=64, bias=True)
    (3): GELU(approximate='none')
  )
)
2024-08-12 12:43:48,924 Conv1D block [3], with input_dim=64, output_dim=64
2024-08-12 12:43:48,925 Residual block with conv_block=Conv1DBlock(
  (conv1d): Conv1d(64, 64, kernel_size=(3,), stride=(1,), padding=(1,))
  (norm): Normalization(
    (norm): BatchNorm1d(64, eps=1e-05, momentum=0.1, affine=True, track_running_stats=True)
  )
  (act_func): GELU(approximate='none')
), feature_block=MLPBlock(
  (mlp): Sequential(
    (0): Linear(in_features=64, out_features=128, bias=True)
    (1): GELU(approximate='none')
    (2): Linear(in_features=128, out_features=64, bias=True)
    (3): GELU(approximate='none')
  )
)
2024-08-12 12:43:48,926 Conv1D block [4], with input_dim=64, output_dim=64
2024-08-12 12:43:48,927 Residual block with conv_block=Conv1DBlock(
  (conv1d): Conv1d(64, 64, kernel_size=(3,), stride=(1,), padding=(1,))
  (norm): Normalization(
    (norm): BatchNorm1d(64, eps=1e-05, momentum=0.1, affine=True, track_running_stats=True)
  )
  (act_func): GELU(approximate='none')
), feature_block=MLPBlock(
  (mlp): Sequential(
    (0): Linear(in_features=64, out_features=128, bias=True)
    (1): GELU(approximate='none')
    (2): Linear(in_features=128, out_features=64, bias=True)
    (3): GELU(approximate='none')
  )
)
2024-08-12 12:43:48,927 Conv1D block [5], with input_dim=64, output_dim=64
2024-08-12 12:43:48,928 Residual block with conv_block=Conv1DBlock(
  (conv1d): Conv1d(64, 64, kernel_size=(3,), stride=(1,), padding=(1,))
  (norm): Normalization(
    (norm): BatchNorm1d(64, eps=1e-05, momentum=0.1, affine=True, track_running_stats=True)
  )
  (act_func): GELU(approximate='none')
), feature_block=MLPBlock(
  (mlp): Sequential(
    (0): Linear(in_features=64, out_features=128, bias=True)
    (1): GELU(approximate='none')
    (2): Linear(in_features=128, out_features=64, bias=True)
    (3): GELU(approximate='none')
  )
)
2024-08-12 12:43:49,450 Conv1D block [0], with input_dim=64, output_dim=256
2024-08-12 12:43:49,454 Residual block with conv_block=Conv1DBlock(
  (conv1d): Conv1d(64, 256, kernel_size=(3,), stride=(1,), padding=(1,))
  (norm): Normalization(
    (norm): BatchNorm1d(256, eps=1e-05, momentum=0.1, affine=True, track_running_stats=True)
  )
  (act_func): GELU(approximate='none')
), feature_block=MLPBlock(
  (mlp): Sequential(
    (0): Linear(in_features=256, out_features=512, bias=True)
    (1): GELU(approximate='none')
    (2): Linear(in_features=512, out_features=256, bias=True)
    (3): GELU(approximate='none')
  )
)
2024-08-12 12:43:49,464 Conv1D block [1], with input_dim=256, output_dim=256
2024-08-12 12:43:49,467 Residual block with conv_block=Conv1DBlock(
  (conv1d): Conv1d(256, 256, kernel_size=(3,), stride=(1,), padding=(1,))
  (norm): Normalization(
    (norm): BatchNorm1d(256, eps=1e-05, momentum=0.1, affine=True, track_running_stats=True)
  )
  (act_func): GELU(approximate='none')
), feature_block=MLPBlock(
  (mlp): Sequential(
    (0): Linear(in_features=256, out_features=512, bias=True)
    (1): GELU(approximate='none')
    (2): Linear(in_features=512, out_features=256, bias=True)
    (3): GELU(approximate='none')
  )
)
2024-08-12 12:44:19,682 Conv1D block [0], with input_dim=64, output_dim=256
2024-08-12 12:44:19,687 Residual block with conv_block=Conv1DBlock(
  (conv1d): Conv1d(64, 256, kernel_size=(3,), stride=(1,), padding=(1,))
  (norm): Normalization(
    (norm): BatchNorm1d(256, eps=1e-05, momentum=0.1, affine=True, track_running_stats=True)
  )
  (act_func): GELU(approximate='none')
), feature_block=MLPBlock(
  (mlp): Sequential(
    (0): Linear(in_features=256, out_features=512, bias=True)
    (1): GELU(approximate='none')
    (2): Linear(in_features=512, out_features=256, bias=True)
    (3): GELU(approximate='none')
  )
)
2024-08-12 12:44:19,690 Conv1D block [1], with input_dim=256, output_dim=256
2024-08-12 12:44:19,693 Residual block with conv_block=Conv1DBlock(
  (conv1d): Conv1d(256, 256, kernel_size=(3,), stride=(1,), padding=(1,))
  (norm): Normalization(
    (norm): BatchNorm1d(256, eps=1e-05, momentum=0.1, affine=True, track_running_stats=True)
  )
  (act_func): GELU(approximate='none')
), feature_block=MLPBlock(
  (mlp): Sequential(
    (0): Linear(in_features=256, out_features=512, bias=True)
    (1): GELU(approximate='none')
    (2): Linear(in_features=512, out_features=256, bias=True)
    (3): GELU(approximate='none')
  )
)
2024-08-12 12:44:22,746 Conv1D block [0], with input_dim=64, output_dim=64
2024-08-12 12:44:22,747 Residual block with conv_block=Conv1DBlock(
  (conv1d): Conv1d(64, 64, kernel_size=(3,), stride=(1,), padding=(1,))
  (norm): Normalization(
    (norm): BatchNorm1d(64, eps=1e-05, momentum=0.1, affine=True, track_running_stats=True)
  )
  (act_func): GELU(approximate='none')
), feature_block=MLPBlock(
  (mlp): Sequential(
    (0): Linear(in_features=64, out_features=128, bias=True)
    (1): GELU(approximate='none')
    (2): Linear(in_features=128, out_features=64, bias=True)
    (3): GELU(approximate='none')
  )
)
2024-08-12 12:44:22,747 Conv1D block [1], with input_dim=64, output_dim=64
2024-08-12 12:44:22,748 Residual block with conv_block=Conv1DBlock(
  (conv1d): Conv1d(64, 64, kernel_size=(3,), stride=(1,), padding=(1,))
  (norm): Normalization(
    (norm): BatchNorm1d(64, eps=1e-05, momentum=0.1, affine=True, track_running_stats=True)
  )
  (act_func): GELU(approximate='none')
), feature_block=MLPBlock(
  (mlp): Sequential(
    (0): Linear(in_features=64, out_features=128, bias=True)
    (1): GELU(approximate='none')
    (2): Linear(in_features=128, out_features=64, bias=True)
    (3): GELU(approximate='none')
  )
)
2024-08-12 12:44:37,512 Conv1D block [0], with input_dim=512, output_dim=64
2024-08-12 12:44:37,514 Residual block with conv_block=Conv1DBlock(
  (conv1d): Conv1d(512, 64, kernel_size=(3,), stride=(1,), padding=(1,))
  (norm): Normalization(
    (norm): BatchNorm1d(64, eps=1e-05, momentum=0.1, affine=True, track_running_stats=True)
  )
  (act_func): GELU(approximate='none')
), feature_block=MLPBlock(
  (mlp): Sequential(
    (0): Linear(in_features=64, out_features=128, bias=True)
    (1): GELU(approximate='none')
    (2): Linear(in_features=128, out_features=64, bias=True)
    (3): GELU(approximate='none')
  )
)
2024-08-12 12:44:37,514 Conv1D block [1], with input_dim=64, output_dim=64
2024-08-12 12:44:37,515 Residual block with conv_block=Conv1DBlock(
  (conv1d): Conv1d(64, 64, kernel_size=(3,), stride=(1,), padding=(1,))
  (norm): Normalization(
    (norm): BatchNorm1d(64, eps=1e-05, momentum=0.1, affine=True, track_running_stats=True)
  )
  (act_func): GELU(approximate='none')
), feature_block=MLPBlock(
  (mlp): Sequential(
    (0): Linear(in_features=64, out_features=128, bias=True)
    (1): GELU(approximate='none')
    (2): Linear(in_features=128, out_features=64, bias=True)
    (3): GELU(approximate='none')
  )
)
2024-08-12 12:44:37,516 Conv1D block [2], with input_dim=64, output_dim=64
2024-08-12 12:44:37,517 Residual block with conv_block=Conv1DBlock(
  (conv1d): Conv1d(64, 64, kernel_size=(3,), stride=(1,), padding=(1,))
  (norm): Normalization(
    (norm): BatchNorm1d(64, eps=1e-05, momentum=0.1, affine=True, track_running_stats=True)
  )
  (act_func): GELU(approximate='none')
), feature_block=MLPBlock(
  (mlp): Sequential(
    (0): Linear(in_features=64, out_features=128, bias=True)
    (1): GELU(approximate='none')
    (2): Linear(in_features=128, out_features=64, bias=True)
    (3): GELU(approximate='none')
  )
)
2024-08-12 12:44:37,517 Conv1D block [3], with input_dim=64, output_dim=64
2024-08-12 12:44:37,518 Residual block with conv_block=Conv1DBlock(
  (conv1d): Conv1d(64, 64, kernel_size=(3,), stride=(1,), padding=(1,))
  (norm): Normalization(
    (norm): BatchNorm1d(64, eps=1e-05, momentum=0.1, affine=True, track_running_stats=True)
  )
  (act_func): GELU(approximate='none')
), feature_block=MLPBlock(
  (mlp): Sequential(
    (0): Linear(in_features=64, out_features=128, bias=True)
    (1): GELU(approximate='none')
    (2): Linear(in_features=128, out_features=64, bias=True)
    (3): GELU(approximate='none')
  )
)
2024-08-12 12:44:37,519 Conv1D block [4], with input_dim=64, output_dim=64
2024-08-12 12:44:37,520 Residual block with conv_block=Conv1DBlock(
  (conv1d): Conv1d(64, 64, kernel_size=(3,), stride=(1,), padding=(1,))
  (norm): Normalization(
    (norm): BatchNorm1d(64, eps=1e-05, momentum=0.1, affine=True, track_running_stats=True)
  )
  (act_func): GELU(approximate='none')
), feature_block=MLPBlock(
  (mlp): Sequential(
    (0): Linear(in_features=64, out_features=128, bias=True)
    (1): GELU(approximate='none')
    (2): Linear(in_features=128, out_features=64, bias=True)
    (3): GELU(approximate='none')
  )
)
2024-08-12 12:44:37,520 Conv1D block [5], with input_dim=64, output_dim=64
2024-08-12 12:44:37,521 Residual block with conv_block=Conv1DBlock(
  (conv1d): Conv1d(64, 64, kernel_size=(3,), stride=(1,), padding=(1,))
  (norm): Normalization(
    (norm): BatchNorm1d(64, eps=1e-05, momentum=0.1, affine=True, track_running_stats=True)
  )
  (act_func): GELU(approximate='none')
), feature_block=MLPBlock(
  (mlp): Sequential(
    (0): Linear(in_features=64, out_features=128, bias=True)
    (1): GELU(approximate='none')
    (2): Linear(in_features=128, out_features=64, bias=True)
    (3): GELU(approximate='none')
  )
)
2024-08-12 12:44:40,904 Conv1D block [0], with input_dim=512, output_dim=256
2024-08-12 12:44:40,908 Residual block with conv_block=Conv1DBlock(
  (conv1d): Conv1d(512, 256, kernel_size=(3,), stride=(1,), padding=(1,))
  (norm): Normalization(
    (norm): BatchNorm1d(256, eps=1e-05, momentum=0.1, affine=True, track_running_stats=True)
  )
  (act_func): GELU(approximate='none')
), feature_block=MLPBlock(
  (mlp): Sequential(
    (0): Linear(in_features=256, out_features=512, bias=True)
    (1): GELU(approximate='none')
    (2): Linear(in_features=512, out_features=256, bias=True)
    (3): GELU(approximate='none')
  )
)
2024-08-12 12:44:40,910 Conv1D block [1], with input_dim=256, output_dim=256
2024-08-12 12:44:40,913 Residual block with conv_block=Conv1DBlock(
  (conv1d): Conv1d(256, 256, kernel_size=(3,), stride=(1,), padding=(1,))
  (norm): Normalization(
    (norm): BatchNorm1d(256, eps=1e-05, momentum=0.1, affine=True, track_running_stats=True)
  )
  (act_func): GELU(approximate='none')
), feature_block=MLPBlock(
  (mlp): Sequential(
    (0): Linear(in_features=256, out_features=512, bias=True)
    (1): GELU(approximate='none')
    (2): Linear(in_features=512, out_features=256, bias=True)
    (3): GELU(approximate='none')
  )
)
2024-08-12 12:44:40,914 Conv1D block [2], with input_dim=256, output_dim=256
2024-08-12 12:44:40,917 Residual block with conv_block=Conv1DBlock(
  (conv1d): Conv1d(256, 256, kernel_size=(3,), stride=(1,), padding=(1,))
  (norm): Normalization(
    (norm): BatchNorm1d(256, eps=1e-05, momentum=0.1, affine=True, track_running_stats=True)
  )
  (act_func): GELU(approximate='none')
), feature_block=MLPBlock(
  (mlp): Sequential(
    (0): Linear(in_features=256, out_features=512, bias=True)
    (1): GELU(approximate='none')
    (2): Linear(in_features=512, out_features=256, bias=True)
    (3): GELU(approximate='none')
  )
)
2024-08-12 12:44:40,918 Conv1D block [3], with input_dim=256, output_dim=256
2024-08-12 12:44:40,921 Residual block with conv_block=Conv1DBlock(
  (conv1d): Conv1d(256, 256, kernel_size=(3,), stride=(1,), padding=(1,))
  (norm): Normalization(
    (norm): BatchNorm1d(256, eps=1e-05, momentum=0.1, affine=True, track_running_stats=True)
  )
  (act_func): GELU(approximate='none')
), feature_block=MLPBlock(
  (mlp): Sequential(
    (0): Linear(in_features=256, out_features=512, bias=True)
    (1): GELU(approximate='none')
    (2): Linear(in_features=512, out_features=256, bias=True)
    (3): GELU(approximate='none')
  )
)
2024-08-12 12:44:40,922 Conv1D block [4], with input_dim=256, output_dim=256
2024-08-12 12:44:40,925 Residual block with conv_block=Conv1DBlock(
  (conv1d): Conv1d(256, 256, kernel_size=(3,), stride=(1,), padding=(1,))
  (norm): Normalization(
    (norm): BatchNorm1d(256, eps=1e-05, momentum=0.1, affine=True, track_running_stats=True)
  )
  (act_func): GELU(approximate='none')
), feature_block=MLPBlock(
  (mlp): Sequential(
    (0): Linear(in_features=256, out_features=512, bias=True)
    (1): GELU(approximate='none')
    (2): Linear(in_features=512, out_features=256, bias=True)
    (3): GELU(approximate='none')
  )
)
2024-08-12 12:44:40,926 Conv1D block [5], with input_dim=256, output_dim=256
2024-08-12 12:44:40,929 Residual block with conv_block=Conv1DBlock(
  (conv1d): Conv1d(256, 256, kernel_size=(3,), stride=(1,), padding=(1,))
  (norm): Normalization(
    (norm): BatchNorm1d(256, eps=1e-05, momentum=0.1, affine=True, track_running_stats=True)
  )
  (act_func): GELU(approximate='none')
), feature_block=MLPBlock(
  (mlp): Sequential(
    (0): Linear(in_features=256, out_features=512, bias=True)
    (1): GELU(approximate='none')
    (2): Linear(in_features=512, out_features=256, bias=True)
    (3): GELU(approximate='none')
  )
)
2024-08-12 12:44:49,578 Conv1D block [0], with input_dim=64, output_dim=64
2024-08-12 12:44:49,579 Residual block with conv_block=Conv1DBlock(
  (conv1d): Conv1d(64, 64, kernel_size=(3,), stride=(1,), padding=(1,))
  (norm): Normalization(
    (norm): BatchNorm1d(64, eps=1e-05, momentum=0.1, affine=True, track_running_stats=True)
  )
…
    (norm): BatchNorm1d(672, eps=1e-05, momentum=0.1, affine=True, track_running_stats=True)
  )
  (act_func): GELU(approximate='none')
), feature_block=MHABlock(
  (mha): MultiheadAttention(
    (out_proj): NonDynamicallyQuantizableLinear(in_features=672, out_features=672, bias=True)
  )
  (fc): Linear(in_features=672, out_features=672, bias=True)
  (act_func): GELU(approximate='none')
)
2024-08-12 20:56:25,390 Conv1D block [4], with input_dim=672, output_dim=672
2024-08-12 20:56:25,412 Residual block with conv_block=Conv1DBlock(
  (conv1d): Conv1d(672, 672, kernel_size=(3,), stride=(1,), padding=(1,))
  (norm): Normalization(
    (norm): BatchNorm1d(672, eps=1e-05, momentum=0.1, affine=True, track_running_stats=True)
  )
  (act_func): GELU(approximate='none')
), feature_block=MHABlock(
  (mha): MultiheadAttention(
    (out_proj): NonDynamicallyQuantizableLinear(in_features=672, out_features=672, bias=True)
  )
  (fc): Linear(in_features=672, out_features=672, bias=True)
  (act_func): GELU(approximate='none')
)
2024-08-12 20:56:25,425 Conv1D block [5], with input_dim=672, output_dim=672
2024-08-12 20:56:25,448 Residual block with conv_block=Conv1DBlock(
  (conv1d): Conv1d(672, 672, kernel_size=(3,), stride=(1,), padding=(1,))
  (norm): Normalization(
    (norm): BatchNorm1d(672, eps=1e-05, momentum=0.1, affine=True, track_running_stats=True)
  )
  (act_func): GELU(approximate='none')
), feature_block=MHABlock(
  (mha): MultiheadAttention(
    (out_proj): NonDynamicallyQuantizableLinear(in_features=672, out_features=672, bias=True)
  )
  (fc): Linear(in_features=672, out_features=672, bias=True)
  (act_func): GELU(approximate='none')
)
2024-08-12 20:59:34,832 Conv1D block [0], with input_dim=256, output_dim=960
2024-08-12 20:59:34,876 Residual block with conv_block=Conv1DBlock(
  (conv1d): Conv1d(256, 960, kernel_size=(3,), stride=(1,), padding=(1,))
  (norm): Normalization(
    (norm): BatchNorm1d(960, eps=1e-05, momentum=0.1, affine=True, track_running_stats=True)
  )
  (act_func): GELU(approximate='none')
), feature_block=MHABlock(
  (mha): MultiheadAttention(
    (out_proj): NonDynamicallyQuantizableLinear(in_features=960, out_features=960, bias=True)
  )
  (fc): Linear(in_features=960, out_features=960, bias=True)
  (act_func): GELU(approximate='none')
)
2024-08-12 20:59:34,902 Conv1D block [1], with input_dim=960, output_dim=960
2024-08-12 20:59:34,945 Residual block with conv_block=Conv1DBlock(
  (conv1d): Conv1d(960, 960, kernel_size=(3,), stride=(1,), padding=(1,))
  (norm): Normalization(
    (norm): BatchNorm1d(960, eps=1e-05, momentum=0.1, affine=True, track_running_stats=True)
  )
  (act_func): GELU(approximate='none')
), feature_block=MHABlock(
  (mha): MultiheadAttention(
    (out_proj): NonDynamicallyQuantizableLinear(in_features=960, out_features=960, bias=True)
  )
  (fc): Linear(in_features=960, out_features=960, bias=True)
  (act_func): GELU(approximate='none')
)
2024-08-12 20:59:34,971 Conv1D block [2], with input_dim=960, output_dim=960
2024-08-12 20:59:35,016 Residual block with conv_block=Conv1DBlock(
  (conv1d): Conv1d(960, 960, kernel_size=(3,), stride=(1,), padding=(1,))
  (norm): Normalization(
    (norm): BatchNorm1d(960, eps=1e-05, momentum=0.1, affine=True, track_running_stats=True)
  )
  (act_func): GELU(approximate='none')
), feature_block=MHABlock(
  (mha): MultiheadAttention(
    (out_proj): NonDynamicallyQuantizableLinear(in_features=960, out_features=960, bias=True)
  )
  (fc): Linear(in_features=960, out_features=960, bias=True)
  (act_func): GELU(approximate='none')
)
2024-08-12 20:59:35,042 Conv1D block [3], with input_dim=960, output_dim=960
2024-08-12 20:59:35,086 Residual block with conv_block=Conv1DBlock(
  (conv1d): Conv1d(960, 960, kernel_size=(3,), stride=(1,), padding=(1,))
  (norm): Normalization(
    (norm): BatchNorm1d(960, eps=1e-05, momentum=0.1, affine=True, track_running_stats=True)
  )
  (act_func): GELU(approximate='none')
), feature_block=MHABlock(
  (mha): MultiheadAttention(
    (out_proj): NonDynamicallyQuantizableLinear(in_features=960, out_features=960, bias=True)
  )
  (fc): Linear(in_features=960, out_features=960, bias=True)
  (act_func): GELU(approximate='none')
)
2024-08-12 20:59:35,112 Conv1D block [4], with input_dim=960, output_dim=960
2024-08-12 20:59:35,157 Residual block with conv_block=Conv1DBlock(
  (conv1d): Conv1d(960, 960, kernel_size=(3,), stride=(1,), padding=(1,))
  (norm): Normalization(
    (norm): BatchNorm1d(960, eps=1e-05, momentum=0.1, affine=True, track_running_stats=True)
  )
  (act_func): GELU(approximate='none')
), feature_block=MHABlock(
  (mha): MultiheadAttention(
    (out_proj): NonDynamicallyQuantizableLinear(in_features=960, out_features=960, bias=True)
  )
  (fc): Linear(in_features=960, out_features=960, bias=True)
  (act_func): GELU(approximate='none')
)
2024-08-12 20:59:35,183 Conv1D block [5], with input_dim=960, output_dim=960
2024-08-12 20:59:35,227 Residual block with conv_block=Conv1DBlock(
  (conv1d): Conv1d(960, 960, kernel_size=(3,), stride=(1,), padding=(1,))
  (norm): Normalization(
    (norm): BatchNorm1d(960, eps=1e-05, momentum=0.1, affine=True, track_running_stats=True)
  )
  (act_func): GELU(approximate='none')
), feature_block=MHABlock(
  (mha): MultiheadAttention(
    (out_proj): NonDynamicallyQuantizableLinear(in_features=960, out_features=960, bias=True)
  )
  (fc): Linear(in_features=960, out_features=960, bias=True)
  (act_func): GELU(approximate='none')
)
2024-08-12 20:59:35,254 Conv1D block [6], with input_dim=960, output_dim=960
2024-08-12 20:59:35,299 Residual block with conv_block=Conv1DBlock(
  (conv1d): Conv1d(960, 960, kernel_size=(3,), stride=(1,), padding=(1,))
  (norm): Normalization(
    (norm): BatchNorm1d(960, eps=1e-05, momentum=0.1, affine=True, track_running_stats=True)
  )
  (act_func): GELU(approximate='none')
), feature_block=MHABlock(
  (mha): MultiheadAttention(
    (out_proj): NonDynamicallyQuantizableLinear(in_features=960, out_features=960, bias=True)
  )
  (fc): Linear(in_features=960, out_features=960, bias=True)
  (act_func): GELU(approximate='none')
)
2024-08-12 20:59:35,325 Conv1D block [7], with input_dim=960, output_dim=960
2024-08-12 20:59:35,369 Residual block with conv_block=Conv1DBlock(
  (conv1d): Conv1d(960, 960, kernel_size=(3,), stride=(1,), padding=(1,))
  (norm): Normalization(
    (norm): BatchNorm1d(960, eps=1e-05, momentum=0.1, affine=True, track_running_stats=True)
  )
  (act_func): GELU(approximate='none')
), feature_block=MHABlock(
  (mha): MultiheadAttention(
    (out_proj): NonDynamicallyQuantizableLinear(in_features=960, out_features=960, bias=True)
  )
  (fc): Linear(in_features=960, out_features=960, bias=True)
  (act_func): GELU(approximate='none')
)
2024-08-12 20:59:35,396 Conv1D block [8], with input_dim=960, output_dim=960
2024-08-12 20:59:35,439 Residual block with conv_block=Conv1DBlock(
  (conv1d): Conv1d(960, 960, kernel_size=(3,), stride=(1,), padding=(1,))
  (norm): Normalization(
    (norm): BatchNorm1d(960, eps=1e-05, momentum=0.1, affine=True, track_running_stats=True)
  )
  (act_func): GELU(approximate='none')
), feature_block=MHABlock(
  (mha): MultiheadAttention(
    (out_proj): NonDynamicallyQuantizableLinear(in_features=960, out_features=960, bias=True)
  )
  (fc): Linear(in_features=960, out_features=960, bias=True)
  (act_func): GELU(approximate='none')
)
2024-08-12 20:59:35,467 Conv1D block [9], with input_dim=960, output_dim=960
2024-08-12 20:59:35,514 Residual block with conv_block=Conv1DBlock(
  (conv1d): Conv1d(960, 960, kernel_size=(3,), stride=(1,), padding=(1,))
  (norm): Normalization(
    (norm): BatchNorm1d(960, eps=1e-05, momentum=0.1, affine=True, track_running_stats=True)
  )
  (act_func): GELU(approximate='none')
), feature_block=MHABlock(
  (mha): MultiheadAttention(
    (out_proj): NonDynamicallyQuantizableLinear(in_features=960, out_features=960, bias=True)
  )
  (fc): Linear(in_features=960, out_features=960, bias=True)
  (act_func): GELU(approximate='none')
)
2024-08-12 20:59:39,603 Conv1D block [0], with input_dim=320, output_dim=928
2024-08-12 20:59:39,664 Residual block with conv_block=Conv1DBlock(
  (conv1d): Conv1d(320, 928, kernel_size=(3,), stride=(1,), padding=(1,))
  (norm): Normalization(
    (norm): BatchNorm1d(928, eps=1e-05, momentum=0.1, affine=True, track_running_stats=True)
  )
  (act_func): GELU(approximate='none')
), feature_block=MHABlock(
  (mha): MultiheadAttention(
    (out_proj): NonDynamicallyQuantizableLinear(in_features=928, out_features=928, bias=True)
  )
  (fc): Linear(in_features=928, out_features=928, bias=True)
  (act_func): GELU(approximate='none')
)
2024-08-12 20:59:39,685 Conv1D block [1], with input_dim=928, output_dim=928
2024-08-12 20:59:39,737 Residual block with conv_block=Conv1DBlock(
  (conv1d): Conv1d(928, 928, kernel_size=(3,), stride=(1,), padding=(1,))
  (norm): Normalization(
    (norm): BatchNorm1d(928, eps=1e-05, momentum=0.1, affine=True, track_running_stats=True)
  )
  (act_func): GELU(approximate='none')
), feature_block=MHABlock(
  (mha): MultiheadAttention(
    (out_proj): NonDynamicallyQuantizableLinear(in_features=928, out_features=928, bias=True)
  )
  (fc): Linear(in_features=928, out_features=928, bias=True)
  (act_func): GELU(approximate='none')
)
2024-08-12 20:59:39,760 Conv1D block [2], with input_dim=928, output_dim=928
2024-08-12 20:59:39,801 Residual block with conv_block=Conv1DBlock(
  (conv1d): Conv1d(928, 928, kernel_size=(3,), stride=(1,), padding=(1,))
  (norm): Normalization(
    (norm): BatchNorm1d(928, eps=1e-05, momentum=0.1, affine=True, track_running_stats=True)
  )
  (act_func): GELU(approximate='none')
), feature_block=MHABlock(
  (mha): MultiheadAttention(
    (out_proj): NonDynamicallyQuantizableLinear(in_features=928, out_features=928, bias=True)
  )
  (fc): Linear(in_features=928, out_features=928, bias=True)
  (act_func): GELU(approximate='none')
)
2024-08-12 20:59:39,825 Conv1D block [3], with input_dim=928, output_dim=928
2024-08-12 20:59:39,871 Residual block with conv_block=Conv1DBlock(
  (conv1d): Conv1d(928, 928, kernel_size=(3,), stride=(1,), padding=(1,))
  (norm): Normalization(
    (norm): BatchNorm1d(928, eps=1e-05, momentum=0.1, affine=True, track_running_stats=True)
  )
  (act_func): GELU(approximate='none')
), feature_block=MHABlock(
  (mha): MultiheadAttention(
    (out_proj): NonDynamicallyQuantizableLinear(in_features=928, out_features=928, bias=True)
  )
  (fc): Linear(in_features=928, out_features=928, bias=True)
  (act_func): GELU(approximate='none')
)
2024-08-12 20:59:39,895 Conv1D block [4], with input_dim=928, output_dim=928
2024-08-12 20:59:39,934 Residual block with conv_block=Conv1DBlock(
  (conv1d): Conv1d(928, 928, kernel_size=(3,), stride=(1,), padding=(1,))
  (norm): Normalization(
    (norm): BatchNorm1d(928, eps=1e-05, momentum=0.1, affine=True, track_running_stats=True)
  )
  (act_func): GELU(approximate='none')
), feature_block=MHABlock(
  (mha): MultiheadAttention(
    (out_proj): NonDynamicallyQuantizableLinear(in_features=928, out_features=928, bias=True)
  )
  (fc): Linear(in_features=928, out_features=928, bias=True)
  (act_func): GELU(approximate='none')
)
2024-08-12 20:59:39,958 Conv1D block [5], with input_dim=928, output_dim=928
2024-08-12 20:59:39,997 Residual block with conv_block=Conv1DBlock(
  (conv1d): Conv1d(928, 928, kernel_size=(3,), stride=(1,), padding=(1,))
  (norm): Normalization(
    (norm): BatchNorm1d(928, eps=1e-05, momentum=0.1, affine=True, track_running_stats=True)
  )
  (act_func): GELU(approximate='none')
), feature_block=MHABlock(
  (mha): MultiheadAttention(
    (out_proj): NonDynamicallyQuantizableLinear(in_features=928, out_features=928, bias=True)
  )
  (fc): Linear(in_features=928, out_features=928, bias=True)
  (act_func): GELU(approximate='none')
)
2024-08-12 20:59:40,021 Conv1D block [6], with input_dim=928, output_dim=928
2024-08-12 20:59:40,061 Residual block with conv_block=Conv1DBlock(
  (conv1d): Conv1d(928, 928, kernel_size=(3,), stride=(1,), padding=(1,))
  (norm): Normalization(
    (norm): BatchNorm1d(928, eps=1e-05, momentum=0.1, affine=True, track_running_stats=True)
  )
  (act_func): GELU(approximate='none')
), feature_block=MHABlock(
  (mha): MultiheadAttention(
    (out_proj): NonDynamicallyQuantizableLinear(in_features=928, out_features=928, bias=True)
  )
  (fc): Linear(in_features=928, out_features=928, bias=True)
  (act_func): GELU(approximate='none')
)
2024-08-12 20:59:40,086 Conv1D block [7], with input_dim=928, output_dim=928
2024-08-12 20:59:40,125 Residual block with conv_block=Conv1DBlock(
  (conv1d): Conv1d(928, 928, kernel_size=(3,), stride=(1,), padding=(1,))
  (norm): Normalization(
    (norm): BatchNorm1d(928, eps=1e-05, momentum=0.1, affine=True, track_running_stats=True)
  )
  (act_func): GELU(approximate='none')
), feature_block=MHABlock(
  (mha): MultiheadAttention(
    (out_proj): NonDynamicallyQuantizableLinear(in_features=928, out_features=928, bias=True)
  )
  (fc): Linear(in_features=928, out_features=928, bias=True)
  (act_func): GELU(approximate='none')
)
2024-08-12 21:03:00,314 Conv1D block [0], with input_dim=288, output_dim=672
2024-08-12 21:03:00,352 Residual block with conv_block=Conv1DBlock(
  (conv1d): Conv1d(288, 672, kernel_size=(3,), stride=(1,), padding=(1,))
  (norm): Normalization(
    (norm): BatchNorm1d(672, eps=1e-05, momentum=0.1, affine=True, track_running_stats=True)
  )
  (act_func): GELU(approximate='none')
), feature_block=MHABlock(
  (mha): MultiheadAttention(
    (out_proj): NonDynamicallyQuantizableLinear(in_features=672, out_features=672, bias=True)
  )
  (fc): Linear(in_features=672, out_features=672, bias=True)
  (act_func): GELU(approximate='none')
)
2024-08-12 21:03:00,386 Conv1D block [1], with input_dim=672, output_dim=672
2024-08-12 21:03:00,440 Residual block with conv_block=Conv1DBlock(
  (conv1d): Conv1d(672, 672, kernel_size=(3,), stride=(1,), padding=(1,))
  (norm): Normalization(
    (norm): BatchNorm1d(672, eps=1e-05, momentum=0.1, affine=True, track_running_stats=True)
  )
  (act_func): GELU(approximate='none')
), feature_block=MHABlock(
  (mha): MultiheadAttention(
    (out_proj): NonDynamicallyQuantizableLinear(in_features=672, out_features=672, bias=True)
  )
  (fc): Linear(in_features=672, out_features=672, bias=True)
  (act_func): GELU(approximate='none')
)
2024-08-12 21:03:00,465 Conv1D block [2], with input_dim=672, output_dim=672
2024-08-12 21:03:00,486 Residual block with conv_block=Conv1DBlock(
  (conv1d): Conv1d(672, 672, kernel_size=(3,), stride=(1,), padding=(1,))
  (norm): Normalization(
    (norm): BatchNorm1d(672, eps=1e-05, momentum=0.1, affine=True, track_running_stats=True)
  )
  (act_func): GELU(approximate='none')
), feature_block=MHABlock(
  (mha): MultiheadAttention(
    (out_proj): NonDynamicallyQuantizableLinear(in_features=672, out_features=672, bias=True)
  )
  (fc): Linear(in_features=672, out_features=672, bias=True)
  (act_func): GELU(approximate='none')
)
2024-08-12 21:03:00,494 Conv1D block [3], with input_dim=672, output_dim=672
2024-08-12 21:03:00,507 Residual block with conv_block=Conv1DBlock(
  (conv1d): Conv1d(672, 672, kernel_size=(3,), stride=(1,), padding=(1,))
  (norm): Normalization(
    (norm): BatchNorm1d(672, eps=1e-05, momentum=0.1, affine=True, track_running_stats=True)
  )
  (act_func): GELU(approximate='none')
), feature_block=MHABlock(
  (mha): MultiheadAttention(
    (out_proj): NonDynamicallyQuantizableLinear(in_features=672, out_features=672, bias=True)
  )
  (fc): Linear(in_features=672, out_features=672, bias=True)
  (act_func): GELU(approximate='none')
)
2024-08-12 21:03:00,516 Conv1D block [4], with input_dim=672, output_dim=672
2024-08-12 21:03:00,530 Residual block with conv_block=Conv1DBlock(
  (conv1d): Conv1d(672, 672, kernel_size=(3,), stride=(1,), padding=(1,))
  (norm): Normalization(
    (norm): BatchNorm1d(672, eps=1e-05, momentum=0.1, affine=True, track_running_stats=True)
  )
  (act_func): GELU(approximate='none')
), feature_block=MHABlock(
  (mha): MultiheadAttention(
    (out_proj): NonDynamicallyQuantizableLinear(in_features=672, out_features=672, bias=True)
  )
  (fc): Linear(in_features=672, out_features=672, bias=True)
  (act_func): GELU(approximate='none')
)
2024-08-12 21:03:00,537 Conv1D block [5], with input_dim=672, output_dim=672
2024-08-12 21:03:00,551 Residual block with conv_block=Conv1DBlock(
  (conv1d): Conv1d(672, 672, kernel_size=(3,), stride=(1,), padding=(1,))
  (norm): Normalization(
    (norm): BatchNorm1d(672, eps=1e-05, momentum=0.1, affine=True, track_running_stats=True)
  )
  (act_func): GELU(approximate='none')
), feature_block=MHABlock(
  (mha): MultiheadAttention(
    (out_proj): NonDynamicallyQuantizableLinear(in_features=672, out_features=672, bias=True)
  )
  (fc): Linear(in_features=672, out_features=672, bias=True)
  (act_func): GELU(approximate='none')
)
2024-08-12 21:03:04,509 Conv1D block [0], with input_dim=320, output_dim=768
2024-08-12 21:03:04,539 Residual block with conv_block=Conv1DBlock(
  (conv1d): Conv1d(320, 768, kernel_size=(3,), stride=(1,), padding=(1,))
  (norm): Normalization(
    (norm): BatchNorm1d(768, eps=1e-05, momentum=0.1, affine=True, track_running_stats=True)
  )
  (act_func): GELU(approximate='none')
), feature_block=MHABlock(
  (mha): MultiheadAttention(
    (out_proj): NonDynamicallyQuantizableLinear(in_features=768, out_features=768, bias=True)
  )
  (fc): Linear(in_features=768, out_features=768, bias=True)
  (act_func): GELU(approximate='none')
)
2024-08-12 21:03:04,555 Conv1D block [1], with input_dim=768, output_dim=768
2024-08-12 21:03:04,587 Residual block with conv_block=Conv1DBlock(
  (conv1d): Conv1d(768, 768, kernel_size=(3,), stride=(1,), padding=(1,))
  (norm): Normalization(
    (norm): BatchNorm1d(768, eps=1e-05, momentum=0.1, affine=True, track_running_stats=True)
  )
  (act_func): GELU(approximate='none')
), feature_block=MHABlock(
  (mha): MultiheadAttention(
    (out_proj): NonDynamicallyQuantizableLinear(in_features=768, out_features=768, bias=True)
  )
  (fc): Linear(in_features=768, out_features=768, bias=True)
  (act_func): GELU(approximate='none')
)
2024-08-12 21:03:04,605 Conv1D block [2], with input_dim=768, output_dim=768
2024-08-12 21:03:04,637 Residual block with conv_block=Conv1DBlock(
  (conv1d): Conv1d(768, 768, kernel_size=(3,), stride=(1,), padding=(1,))
  (norm): Normalization(
    (norm): BatchNorm1d(768, eps=1e-05, momentum=0.1, affine=True, track_running_stats=True)
  )
  (act_func): GELU(approximate='none')
), feature_block=MHABlock(
  (mha): MultiheadAttention(
    (out_proj): NonDynamicallyQuantizableLinear(in_features=768, out_features=768, bias=True)
  )
  (fc): Linear(in_features=768, out_features=768, bias=True)
  (act_func): GELU(approximate='none')
)
2024-08-12 21:03:04,668 Conv1D block [3], with input_dim=768, output_dim=768
2024-08-12 21:03:04,700 Residual block with conv_block=Conv1DBlock(
  (conv1d): Conv1d(768, 768, kernel_size=(3,), stride=(1,), padding=(1,))
  (norm): Normalization(
    (norm): BatchNorm1d(768, eps=1e-05, momentum=0.1, affine=True, track_running_stats=True)
  )
  (act_func): GELU(approximate='none')
), feature_block=MHABlock(
  (mha): MultiheadAttention(
    (out_proj): NonDynamicallyQuantizableLinear(in_features=768, out_features=768, bias=True)
  )
  (fc): Linear(in_features=768, out_features=768, bias=True)
  (act_func): GELU(approximate='none')
)
2024-08-12 21:03:04,718 Conv1D block [4], with input_dim=768, output_dim=768
2024-08-12 21:03:04,749 Residual block with conv_block=Conv1DBlock(
  (conv1d): Conv1d(768, 768, kernel_size=(3,), stride=(1,), padding=(1,))
  (norm): Normalization(
    (norm): BatchNorm1d(768, eps=1e-05, momentum=0.1, affine=True, track_running_stats=True)
  )
  (act_func): GELU(approximate='none')
), feature_block=MHABlock(
  (mha): MultiheadAttention(
    (out_proj): NonDynamicallyQuantizableLinear(in_features=768, out_features=768, bias=True)
  )
  (fc): Linear(in_features=768, out_features=768, bias=True)
  (act_func): GELU(approximate='none')
)
2024-08-12 21:03:04,766 Conv1D block [5], with input_dim=768, output_dim=768
2024-08-12 21:03:04,796 Residual block with conv_block=Conv1DBlock(
  (conv1d): Conv1d(768, 768, kernel_size=(3,), stride=(1,), padding=(1,))
  (norm): Normalization(
    (norm): BatchNorm1d(768, eps=1e-05, momentum=0.1, affine=True, track_running_stats=True)
  )
  (act_func): GELU(approximate='none')
), feature_block=MHABlock(
  (mha): MultiheadAttention(
    (out_proj): NonDynamicallyQuantizableLinear(in_features=768, out_features=768, bias=True)
  )
  (fc): Linear(in_features=768, out_features=768, bias=True)
  (act_func): GELU(approximate='none')
)
2024-08-12 21:03:04,815 Conv1D block [6], with input_dim=768, output_dim=768
2024-08-12 21:03:04,847 Residual block with conv_block=Conv1DBlock(
  (conv1d): Conv1d(768, 768, kernel_size=(3,), stride=(1,), padding=(1,))
  (norm): Normalization(
    (norm): BatchNorm1d(768, eps=1e-05, momentum=0.1, affine=True, track_running_stats=True)
  )
  (act_func): GELU(approximate='none')
), feature_block=MHABlock(
  (mha): MultiheadAttention(
    (out_proj): NonDynamicallyQuantizableLinear(in_features=768, out_features=768, bias=True)
  )
  (fc): Linear(in_features=768, out_features=768, bias=True)
  (act_func): GELU(approximate='none')
)
2024-08-12 21:03:04,865 Conv1D block [7], with input_dim=768, output_dim=768
2024-08-12 21:03:04,893 Residual block with conv_block=Conv1DBlock(
  (conv1d): Conv1d(768, 768, kernel_size=(3,), stride=(1,), padding=(1,))
  (norm): Normalization(
    (norm): BatchNorm1d(768, eps=1e-05, momentum=0.1, affine=True, track_running_stats=True)
  )
  (act_func): GELU(approximate='none')
), feature_block=MHABlock(
  (mha): MultiheadAttention(
    (out_proj): NonDynamicallyQuantizableLinear(in_features=768, out_features=768, bias=True)
  )
  (fc): Linear(in_features=768, out_features=768, bias=True)
  (act_func): GELU(approximate='none')
)
2024-08-12 21:09:28,917 Conv1D block [0], with input_dim=320, output_dim=928
2024-08-12 21:09:28,957 Residual block with conv_block=Conv1DBlock(
  (conv1d): Conv1d(320, 928, kernel_size=(3,), stride=(1,), padding=(1,))
  (norm): Normalization(
    (norm): BatchNorm1d(928, eps=1e-05, momentum=0.1, affine=True, track_running_stats=True)
  )
  (act_func): GELU(approximate='none')
), feature_block=MHABlock(
  (mha): MultiheadAttention(
    (out_proj): NonDynamicallyQuantizableLinear(in_features=928, out_features=928, bias=True)
  )
  (fc): Linear(in_features=928, out_features=928, bias=True)
  (act_func): GELU(approximate='none')
)
2024-08-12 21:09:28,978 Conv1D block [1], with input_dim=928, output_dim=928
2024-08-12 21:09:29,015 Residual block with conv_block=Conv1DBlock(
  (conv1d): Conv1d(928, 928, kernel_size=(3,), stride=(1,), padding=(1,))
  (norm): Normalization(
    (norm): BatchNorm1d(928, eps=1e-05, momentum=0.1, affine=True, track_running_stats=True)
  )
  (act_func): GELU(approximate='none')
), feature_block=MHABlock(
  (mha): MultiheadAttention(
    (out_proj): NonDynamicallyQuantizableLinear(in_features=928, out_features=928, bias=True)
  )
  (fc): Linear(in_features=928, out_features=928, bias=True)
  (act_func): GELU(approximate='none')
)
2024-08-12 21:09:29,037 Conv1D block [2], with input_dim=928, output_dim=928
2024-08-12 21:09:29,077 Residual block with conv_block=Conv1DBlock(
  (conv1d): Conv1d(928, 928, kernel_size=(3,), stride=(1,), padding=(1,))
  (norm): Normalization(
    (norm): BatchNorm1d(928, eps=1e-05, momentum=0.1, affine=True, track_running_stats=True)
  )
  (act_func): GELU(approximate='none')
), feature_block=MHABlock(
  (mha): MultiheadAttention(
    (out_proj): NonDynamicallyQuantizableLinear(in_features=928, out_features=928, bias=True)
  )
  (fc): Linear(in_features=928, out_features=928, bias=True)
  (act_func): GELU(approximate='none')
)
2024-08-12 21:09:29,102 Conv1D block [3], with input_dim=928, output_dim=928
2024-08-12 21:09:29,144 Residual block with conv_block=Conv1DBlock(
  (conv1d): Conv1d(928, 928, kernel_size=(3,), stride=(1,), padding=(1,))
  (norm): Normalization(
    (norm): BatchNorm1d(928, eps=1e-05, momentum=0.1, affine=True, track_running_stats=True)
  )
  (act_func): GELU(approximate='none')
), feature_block=MHABlock(
  (mha): MultiheadAttention(
    (out_proj): NonDynamicallyQuantizableLinear(in_features=928, out_features=928, bias=True)
  )
  (fc): Linear(in_features=928, out_features=928, bias=True)
  (act_func): GELU(approximate='none')
)
2024-08-12 21:09:29,169 Conv1D block [4], with input_dim=928, output_dim=928
2024-08-12 21:09:29,209 Residual block with conv_block=Conv1DBlock(
  (conv1d): Conv1d(928, 928, kernel_size=(3,), stride=(1,), padding=(1,))
  (norm): Normalization(
    (norm): BatchNorm1d(928, eps=1e-05, momentum=0.1, affine=True, track_running_stats=True)
  )
  (act_func): GELU(approximate='none')
), feature_block=MHABlock(
  (mha): MultiheadAttention(
    (out_proj): NonDynamicallyQuantizableLinear(in_features=928, out_features=928, bias=True)
  )
  (fc): Linear(in_features=928, out_features=928, bias=True)
  (act_func): GELU(approximate='none')
)
2024-08-12 21:09:29,234 Conv1D block [5], with input_dim=928, output_dim=928
2024-08-12 21:09:29,275 Residual block with conv_block=Conv1DBlock(
  (conv1d): Conv1d(928, 928, kernel_size=(3,), stride=(1,), padding=(1,))
  (norm): Normalization(
    (norm): BatchNorm1d(928, eps=1e-05, momentum=0.1, affine=True, track_running_stats=True)
  )
  (act_func): GELU(approximate='none')
), feature_block=MHABlock(
  (mha): MultiheadAttention(
    (out_proj): NonDynamicallyQuantizableLinear(in_features=928, out_features=928, bias=True)
  )
  (fc): Linear(in_features=928, out_features=928, bias=True)
  (act_func): GELU(approximate='none')
)
2024-08-12 21:09:29,298 Conv1D block [6], with input_dim=928, output_dim=928
2024-08-12 21:09:29,340 Residual block with conv_block=Conv1DBlock(
  (conv1d): Conv1d(928, 928, kernel_size=(3,), stride=(1,), padding=(1,))
  (norm): Normalization(
    (norm): BatchNorm1d(928, eps=1e-05, momentum=0.1, affine=True, track_running_stats=True)
  )
  (act_func): GELU(approximate='none')
), feature_block=MHABlock(
  (mha): MultiheadAttention(
    (out_proj): NonDynamicallyQuantizableLinear(in_features=928, out_features=928, bias=True)
  )
  (fc): Linear(in_features=928, out_features=928, bias=True)
  (act_func): GELU(approximate='none')
)
2024-08-12 21:09:29,365 Conv1D block [7], with input_dim=928, output_dim=928
2024-08-12 21:09:29,406 Residual block with conv_block=Conv1DBlock(
  (conv1d): Conv1d(928, 928, kernel_size=(3,), stride=(1,), padding=(1,))
  (norm): Normalization(
    (norm): BatchNorm1d(928, eps=1e-05, momentum=0.1, affine=True, track_running_stats=True)
  )
  (act_func): GELU(approximate='none')
), feature_block=MHABlock(
  (mha): MultiheadAttention(
    (out_proj): NonDynamicallyQuantizableLinear(in_features=928, out_features=928, bias=True)
  )
  (fc): Linear(in_features=928, out_features=928, bias=True)
  (act_func): GELU(approximate='none')
)
2024-08-12 21:09:33,482 Conv1D block [0], with input_dim=192, output_dim=928
2024-08-12 21:09:33,536 Residual block with conv_block=Conv1DBlock(
  (conv1d): Conv1d(192, 928, kernel_size=(3,), stride=(1,), padding=(1,))
  (norm): Normalization(
    (norm): BatchNorm1d(928, eps=1e-05, momentum=0.1, affine=True, track_running_stats=True)
  )
  (act_func): GELU(approximate='none')
), feature_block=MHABlock(
  (mha): MultiheadAttention(
    (out_proj): NonDynamicallyQuantizableLinear(in_features=928, out_features=928, bias=True)
  )
  (fc): Linear(in_features=928, out_features=928, bias=True)
  (act_func): GELU(approximate='none')
)
2024-08-12 21:09:33,558 Conv1D block [1], with input_dim=928, output_dim=928
2024-08-12 21:09:33,599 Residual block with conv_block=Conv1DBlock(
  (conv1d): Conv1d(928, 928, kernel_size=(3,), stride=(1,), padding=(1,))
  (norm): Normalization(
    (norm): BatchNorm1d(928, eps=1e-05, momentum=0.1, affine=True, track_running_stats=True)
  )
  (act_func): GELU(approximate='none')
), feature_block=MHABlock(
  (mha): MultiheadAttention(
    (out_proj): NonDynamicallyQuantizableLinear(in_features=928, out_features=928, bias=True)
  )
  (fc): Linear(in_features=928, out_features=928, bias=True)
  (act_func): GELU(approximate='none')
)
2024-08-12 21:09:33,625 Conv1D block [2], with input_dim=928, output_dim=928
2024-08-12 21:09:33,668 Residual block with conv_block=Conv1DBlock(
  (conv1d): Conv1d(928, 928, kernel_size=(3,), stride=(1,), padding=(1,))
  (norm): Normalization(
    (norm): BatchNorm1d(928, eps=1e-05, momentum=0.1, affine=True, track_running_stats=True)
  )
  (act_func): GELU(approximate='none')
), feature_block=MHABlock(
  (mha): MultiheadAttention(
    (out_proj): NonDynamicallyQuantizableLinear(in_features=928, out_features=928, bias=True)
  )
  (fc): Linear(in_features=928, out_features=928, bias=True)
  (act_func): GELU(approximate='none')
)
2024-08-12 21:09:33,694 Conv1D block [3], with input_dim=928, output_dim=928
2024-08-12 21:09:33,740 Residual block with conv_block=Conv1DBlock(
  (conv1d): Conv1d(928, 928, kernel_size=(3,), stride=(1,), padding=(1,))
  (norm): Normalization(
    (norm): BatchNorm1d(928, eps=1e-05, momentum=0.1, affine=True, track_running_stats=True)
  )
  (act_func): GELU(approximate='none')
), feature_block=MHABlock(
  (mha): MultiheadAttention(
    (out_proj): NonDynamicallyQuantizableLinear(in_features=928, out_features=928, bias=True)
  )
  (fc): Linear(in_features=928, out_features=928, bias=True)
  (act_func): GELU(approximate='none')
)
2024-08-12 21:09:33,767 Conv1D block [4], with input_dim=928, output_dim=928
2024-08-12 21:09:33,814 Residual block with conv_block=Conv1DBlock(
  (conv1d): Conv1d(928, 928, kernel_size=(3,), stride=(1,), padding=(1,))
  (norm): Normalization(
    (norm): BatchNorm1d(928, eps=1e-05, momentum=0.1, affine=True, track_running_stats=True)
  )
  (act_func): GELU(approximate='none')
), feature_block=MHABlock(
  (mha): MultiheadAttention(
    (out_proj): NonDynamicallyQuantizableLinear(in_features=928, out_features=928, bias=True)
  )
  (fc): Linear(in_features=928, out_features=928, bias=True)
  (act_func): GELU(approximate='none')
)
2024-08-12 21:09:33,838 Conv1D block [5], with input_dim=928, output_dim=928
2024-08-12 21:09:33,880 Residual block with conv_block=Conv1DBlock(
  (conv1d): Conv1d(928, 928, kernel_size=(3,), stride=(1,), padding=(1,))
  (norm): Normalization(
    (norm): BatchNorm1d(928, eps=1e-05, momentum=0.1, affine=True, track_running_stats=True)
  )
  (act_func): GELU(approximate='none')
), feature_block=MHABlock(
  (mha): MultiheadAttention(
    (out_proj): NonDynamicallyQuantizableLinear(in_features=928, out_features=928, bias=True)
  )
  (fc): Linear(in_features=928, out_features=928, bias=True)
  (act_func): GELU(approximate='none')
)
2024-08-12 21:10:13,615 Conv1D block [0], with input_dim=320, output_dim=768
2024-08-12 21:10:13,653 Residual block with conv_block=Conv1DBlock(
  (conv1d): Conv1d(320, 768, kernel_size=(3,), stride=(1,), padding=(1,))
  (norm): Normalization(
    (norm): BatchNorm1d(768, eps=1e-05, momentum=0.1, affine=True, track_running_stats=True)
  )
  (act_func): GELU(approximate='none')
), feature_block=MHABlock(
  (mha): MultiheadAttention(
    (out_proj): NonDynamicallyQuantizableLinear(in_features=768, out_features=768, bias=True)
  )
  (fc): Linear(in_features=768, out_features=768, bias=True)
  (act_func): GELU(approximate='none')
)
2024-08-12 21:10:13,671 Conv1D block [1], with input_dim=768, output_dim=768
2024-08-12 21:10:13,700 Residual block with conv_block=Conv1DBlock(
  (conv1d): Conv1d(768, 768, kernel_size=(3,), stride=(1,), padding=(1,))
  (norm): Normalization(
    (norm): BatchNorm1d(768, eps=1e-05, momentum=0.1, affine=True, track_running_stats=True)
  )
  (act_func): GELU(approximate='none')
), feature_block=MHABlock(
  (mha): MultiheadAttention(
    (out_proj): NonDynamicallyQuantizableLinear(in_features=768, out_features=768, bias=True)
  )
  (fc): Linear(in_features=768, out_features=768, bias=True)
  (act_func): GELU(approximate='none')
)
2024-08-12 21:10:13,718 Conv1D block [2], with input_dim=768, output_dim=768
2024-08-12 21:10:13,765 Residual block with conv_block=Conv1DBlock(
  (conv1d): Conv1d(768, 768, kernel_size=(3,), stride=(1,), padding=(1,))
  (norm): Normalization(
    (norm): BatchNorm1d(768, eps=1e-05, momentum=0.1, affine=True, track_running_stats=True)
  )
  (act_func): GELU(approximate='none')
), feature_block=MHABlock(
  (mha): MultiheadAttention(
    (out_proj): NonDynamicallyQuantizableLinear(in_features=768, out_features=768, bias=True)
  )
  (fc): Linear(in_features=768, out_features=768, bias=True)
  (act_func): GELU(approximate='none')
)
2024-08-12 21:10:13,778 Conv1D block [3], with input_dim=768, output_dim=768
2024-08-12 21:10:13,799 Residual block with conv_block=Conv1DBlock(
  (conv1d): Conv1d(768, 768, kernel_size=(3,), stride=(1,), padding=(1,))
  (norm): Normalization(
    (norm): BatchNorm1d(768, eps=1e-05, momentum=0.1, affine=True, track_running_stats=True)
  )
  (act_func): GELU(approximate='none')
), feature_block=MHABlock(
  (mha): MultiheadAttention(
    (out_proj): NonDynamicallyQuantizableLinear(in_features=768, out_features=768, bias=True)
  )
  (fc): Linear(in_features=768, out_features=768, bias=True)
  (act_func): GELU(approximate='none')
)
2024-08-12 21:10:13,811 Conv1D block [4], with input_dim=768, output_dim=768
2024-08-12 21:10:13,836 Residual block with conv_block=Conv1DBlock(
  (conv1d): Conv1d(768, 768, kernel_size=(3,), stride=(1,), padding=(1,))
  (norm): Normalization(
    (norm): BatchNorm1d(768, eps=1e-05, momentum=0.1, affine=True, track_running_stats=True)
  )
  (act_func): GELU(approximate='none')
), feature_block=MHABlock(
  (mha): MultiheadAttention(
    (out_proj): NonDynamicallyQuantizableLinear(in_features=768, out_features=768, bias=True)
  )
  (fc): Linear(in_features=768, out_features=768, bias=True)
  (act_func): GELU(approximate='none')
)
2024-08-12 21:10:13,847 Conv1D block [5], with input_dim=768, output_dim=768
2024-08-12 21:10:13,870 Residual block with conv_block=Conv1DBlock(
  (conv1d): Conv1d(768, 768, kernel_size=(3,), stride=(1,), padding=(1,))
  (norm): Normalization(
    (norm): BatchNorm1d(768, eps=1e-05, momentum=0.1, affine=True, track_running_stats=True)
  )
  (act_func): GELU(approximate='none')
), feature_block=MHABlock(
  (mha): MultiheadAttention(
    (out_proj): NonDynamicallyQuantizableLinear(in_features=768, out_features=768, bias=True)
  )
  (fc): Linear(in_features=768, out_features=768, bias=True)
  (act_func): GELU(approximate='none')
)
2024-08-12 21:10:13,881 Conv1D block [6], with input_dim=768, output_dim=768
2024-08-12 21:10:13,900 Residual block with conv_block=Conv1DBlock(
  (conv1d): Conv1d(768, 768, kernel_size=(3,), stride=(1,), padding=(1,))
  (norm): Normalization(
    (norm): BatchNorm1d(768, eps=1e-05, momentum=0.1, affine=True, track_running_stats=True)
  )
  (act_func): GELU(approximate='none')
), feature_block=MHABlock(
  (mha): MultiheadAttention(
    (out_proj): NonDynamicallyQuantizableLinear(in_features=768, out_features=768, bias=True)
  )
  (fc): Linear(in_features=768, out_features=768, bias=True)
  (act_func): GELU(approximate='none')
)
2024-08-12 21:10:13,912 Conv1D block [7], with input_dim=768, output_dim=768
2024-08-12 21:10:13,935 Residual block with conv_block=Conv1DBlock(
  (conv1d): Conv1d(768, 768, kernel_size=(3,), stride=(1,), padding=(1,))
  (norm): Normalization(
    (norm): BatchNorm1d(768, eps=1e-05, momentum=0.1, affine=True, track_running_stats=True)
  )
  (act_func): GELU(approximate='none')
), feature_block=MHABlock(
  (mha): MultiheadAttention(
    (out_proj): NonDynamicallyQuantizableLinear(in_features=768, out_features=768, bias=True)
  )
  (fc): Linear(in_features=768, out_features=768, bias=True)
  (act_func): GELU(approximate='none')
)
2024-08-12 21:10:18,477 Conv1D block [0], with input_dim=352, output_dim=800
2024-08-12 21:10:18,512 Residual block with conv_block=Conv1DBlock(
  (conv1d): Conv1d(352, 800, kernel_size=(3,), stride=(1,), padding=(1,))
  (norm): Normalization(
    (norm): BatchNorm1d(800, eps=1e-05, momentum=0.1, affine=True, track_running_stats=True)
  )
  (act_func): GELU(approximate='none')
), feature_block=MHABlock(
  (mha): MultiheadAttention(
    (out_proj): NonDynamicallyQuantizableLinear(in_features=800, out_features=800, bias=True)
  )
  (fc): Linear(in_features=800, out_features=800, bias=True)
  (act_func): GELU(approximate='none')
)
2024-08-12 21:10:18,532 Conv1D block [1], with input_dim=800, output_dim=800
2024-08-12 21:10:18,560 Residual block with conv_block=Conv1DBlock(
  (conv1d): Conv1d(800, 800, kernel_size=(3,), stride=(1,), padding=(1,))
  (norm): Normalization(
    (norm): BatchNorm1d(800, eps=1e-05, momentum=0.1, affine=True, track_running_stats=True)
  )
  (act_func): GELU(approximate='none')
), feature_block=MHABlock(
  (mha): MultiheadAttention(
    (out_proj): NonDynamicallyQuantizableLinear(in_features=800, out_features=800, bias=True)
  )
  (fc): Linear(in_features=800, out_features=800, bias=True)
  (act_func): GELU(approximate='none')
)
2024-08-12 21:10:18,579 Conv1D block [2], with input_dim=800, output_dim=800
2024-08-12 21:10:18,612 Residual block with conv_block=Conv1DBlock(
  (conv1d): Conv1d(800, 800, kernel_size=(3,), stride=(1,), padding=(1,))
  (norm): Normalization(
    (norm): BatchNorm1d(800, eps=1e-05, momentum=0.1, affine=True, track_running_stats=True)
  )
  (act_func): GELU(approximate='none')
), feature_block=MHABlock(
  (mha): MultiheadAttention(
    (out_proj): NonDynamicallyQuantizableLinear(in_features=800, out_features=800, bias=True)
  )
  (fc): Linear(in_features=800, out_features=800, bias=True)
  (act_func): GELU(approximate='none')
)
2024-08-12 21:10:18,633 Conv1D block [3], with input_dim=800, output_dim=800
2024-08-12 21:10:18,663 Residual block with conv_block=Conv1DBlock(
  (conv1d): Conv1d(800, 800, kernel_size=(3,), stride=(1,), padding=(1,))
  (norm): Normalization(
    (norm): BatchNorm1d(800, eps=1e-05, momentum=0.1, affine=True, track_running_stats=True)
  )
  (act_func): GELU(approximate='none')
), feature_block=MHABlock(
  (mha): MultiheadAttention(
    (out_proj): NonDynamicallyQuantizableLinear(in_features=800, out_features=800, bias=True)
  )
  (fc): Linear(in_features=800, out_features=800, bias=True)
  (act_func): GELU(approximate='none')
)
2024-08-12 21:10:18,682 Conv1D block [4], with input_dim=800, output_dim=800
2024-08-12 21:10:18,711 Residual block with conv_block=Conv1DBlock(
  (conv1d): Conv1d(800, 800, kernel_size=(3,), stride=(1,), padding=(1,))
  (norm): Normalization(
    (norm): BatchNorm1d(800, eps=1e-05, momentum=0.1, affine=True, track_running_stats=True)
  )
  (act_func): GELU(approximate='none')
), feature_block=MHABlock(
  (mha): MultiheadAttention(
    (out_proj): NonDynamicallyQuantizableLinear(in_features=800, out_features=800, bias=True)
  )
  (fc): Linear(in_features=800, out_features=800, bias=True)
  (act_func): GELU(approximate='none')
)
2024-08-12 21:10:18,729 Conv1D block [5], with input_dim=800, output_dim=800
2024-08-12 21:10:18,762 Residual block with conv_block=Conv1DBlock(
  (conv1d): Conv1d(800, 800, kernel_size=(3,), stride=(1,), padding=(1,))
  (norm): Normalization(
    (norm): BatchNorm1d(800, eps=1e-05, momentum=0.1, affine=True, track_running_stats=True)
  )
  (act_func): GELU(approximate='none')
), feature_block=MHABlock(
  (mha): MultiheadAttention(
    (out_proj): NonDynamicallyQuantizableLinear(in_features=800, out_features=800, bias=True)
  )
  (fc): Linear(in_features=800, out_features=800, bias=True)
  (act_func): GELU(approximate='none')
)
2024-08-12 21:10:18,780 Conv1D block [6], with input_dim=800, output_dim=800
2024-08-12 21:10:18,813 Residual block with conv_block=Conv1DBlock(
  (conv1d): Conv1d(800, 800, kernel_size=(3,), stride=(1,), padding=(1,))
  (norm): Normalization(
    (norm): BatchNorm1d(800, eps=1e-05, momentum=0.1, affine=True, track_running_stats=True)
  )
  (act_func): GELU(approximate='none')
), feature_block=MHABlock(
  (mha): MultiheadAttention(
    (out_proj): NonDynamicallyQuantizableLinear(in_features=800, out_features=800, bias=True)
  )
  (fc): Linear(in_features=800, out_features=800, bias=True)
  (act_func): GELU(approximate='none')
)
2024-08-12 21:10:18,832 Conv1D block [7], with input_dim=800, output_dim=800
2024-08-12 21:10:18,864 Residual block with conv_block=Conv1DBlock(
  (conv1d): Conv1d(800, 800, kernel_size=(3,), stride=(1,), padding=(1,))
  (norm): Normalization(
    (norm): BatchNorm1d(800, eps=1e-05, momentum=0.1, affine=True, track_running_stats=True)
  )
  (act_func): GELU(approximate='none')
), feature_block=MHABlock(
  (mha): MultiheadAttention(
    (out_proj): NonDynamicallyQuantizableLinear(in_features=800, out_features=800, bias=True)
  )
  (fc): Linear(in_features=800, out_features=800, bias=True)
  (act_func): GELU(approximate='none')
)
2024-08-12 21:17:29,279 Conv1D block [0], with input_dim=192, output_dim=928
2024-08-12 21:17:29,331 Residual block with conv_block=Conv1DBlock(
  (conv1d): Conv1d(192, 928, kernel_size=(3,), stride=(1,), padding=(1,))
  (norm): Normalization(
    (norm): BatchNorm1d(928, eps=1e-05, momentum=0.1, affine=True, track_running_stats=True)
  )
  (act_func): GELU(approximate='none')
), feature_block=MHABlock(
  (mha): MultiheadAttention(
    (out_proj): NonDynamicallyQuantizableLinear(in_features=928, out_features=928, bias=True)
  )
  (fc): Linear(in_features=928, out_features=928, bias=True)
  (act_func): GELU(approximate='none')
)
2024-08-12 21:17:29,354 Conv1D block [1], with input_dim=928, output_dim=928
2024-08-12 21:17:29,405 Residual block with conv_block=Conv1DBlock(
  (conv1d): Conv1d(928, 928, kernel_size=(3,), stride=(1,), padding=(1,))
  (norm): Normalization(
    (norm): BatchNorm1d(928, eps=1e-05, momentum=0.1, affine=True, track_running_stats=True)
  )
  (act_func): GELU(approximate='none')
), feature_block=MHABlock(
  (mha): MultiheadAttention(
    (out_proj): NonDynamicallyQuantizableLinear(in_features=928, out_features=928, bias=True)
  )
  (fc): Linear(in_features=928, out_features=928, bias=True)
  (act_func): GELU(approximate='none')
)
2024-08-12 21:17:29,430 Conv1D block [2], with input_dim=928, output_dim=928
2024-08-12 21:17:29,482 Residual block with conv_block=Conv1DBlock(
  (conv1d): Conv1d(928, 928, kernel_size=(3,), stride=(1,), padding=(1,))
  (norm): Normalization(
    (norm): BatchNorm1d(928, eps=1e-05, momentum=0.1, affine=True, track_running_stats=True)
  )
  (act_func): GELU(approximate='none')
), feature_block=MHABlock(
  (mha): MultiheadAttention(
    (out_proj): NonDynamicallyQuantizableLinear(in_features=928, out_features=928, bias=True)
  )
  (fc): Linear(in_features=928, out_features=928, bias=True)
  (act_func): GELU(approximate='none')
)
2024-08-12 21:17:29,507 Conv1D block [3], with input_dim=928, output_dim=928
2024-08-12 21:17:29,559 Residual block with conv_block=Conv1DBlock(
  (conv1d): Conv1d(928, 928, kernel_size=(3,), stride=(1,), padding=(1,))
  (norm): Normalization(
    (norm): BatchNorm1d(928, eps=1e-05, momentum=0.1, affine=True, track_running_stats=True)
  )
  (act_func): GELU(approximate='none')
), feature_block=MHABlock(
  (mha): MultiheadAttention(
    (out_proj): NonDynamicallyQuantizableLinear(in_features=928, out_features=928, bias=True)
  )
  (fc): Linear(in_features=928, out_features=928, bias=True)
  (act_func): GELU(approximate='none')
)
2024-08-12 21:17:29,578 Conv1D block [4], with input_dim=928, output_dim=928
2024-08-12 21:17:29,624 Residual block with conv_block=Conv1DBlock(
  (conv1d): Conv1d(928, 928, kernel_size=(3,), stride=(1,), padding=(1,))
  (norm): Normalization(
    (norm): BatchNorm1d(928, eps=1e-05, momentum=0.1, affine=True, track_running_stats=True)
  )
  (act_func): GELU(approximate='none')
), feature_block=MHABlock(
  (mha): MultiheadAttention(
    (out_proj): NonDynamicallyQuantizableLinear(in_features=928, out_features=928, bias=True)
  )
  (fc): Linear(in_features=928, out_features=928, bias=True)
  (act_func): GELU(approximate='none')
)
2024-08-12 21:17:29,648 Conv1D block [5], with input_dim=928, output_dim=928
2024-08-12 21:17:29,690 Residual block with conv_block=Conv1DBlock(
  (conv1d): Conv1d(928, 928, kernel_size=(3,), stride=(1,), padding=(1,))
  (norm): Normalization(
    (norm): BatchNorm1d(928, eps=1e-05, momentum=0.1, affine=True, track_running_stats=True)
  )
  (act_func): GELU(approximate='none')
), feature_block=MHABlock(
  (mha): MultiheadAttention(
    (out_proj): NonDynamicallyQuantizableLinear(in_features=928, out_features=928, bias=True)
  )
  (fc): Linear(in_features=928, out_features=928, bias=True)
  (act_func): GELU(approximate='none')
)
2024-08-12 21:17:33,518 Conv1D block [0], with input_dim=192, output_dim=704
2024-08-12 21:17:33,544 Residual block with conv_block=Conv1DBlock(
  (conv1d): Conv1d(192, 704, kernel_size=(3,), stride=(1,), padding=(1,))
  (norm): Normalization(
    (norm): BatchNorm1d(704, eps=1e-05, momentum=0.1, affine=True, track_running_stats=True)
  )
  (act_func): GELU(approximate='none')
), feature_block=MHABlock(
  (mha): MultiheadAttention(
    (out_proj): NonDynamicallyQuantizableLinear(in_features=704, out_features=704, bias=True)
  )
  (fc): Linear(in_features=704, out_features=704, bias=True)
  (act_func): GELU(approximate='none')
)
2024-08-12 21:17:33,557 Conv1D block [1], with input_dim=704, output_dim=704
2024-08-12 21:17:33,577 Residual block with conv_block=Conv1DBlock(
  (conv1d): Conv1d(704, 704, kernel_size=(3,), stride=(1,), padding=(1,))
  (norm): Normalization(
    (norm): BatchNorm1d(704, eps=1e-05, momentum=0.1, affine=True, track_running_stats=True)
  )
  (act_func): GELU(approximate='none')
), feature_block=MHABlock(
  (mha): MultiheadAttention(
    (out_proj): NonDynamicallyQuantizableLinear(in_features=704, out_features=704, bias=True)
  )
  (fc): Linear(in_features=704, out_features=704, bias=True)
  (act_func): GELU(approximate='none')
)
2024-08-12 21:17:33,588 Conv1D block [2], with input_dim=704, output_dim=704
2024-08-12 21:17:33,607 Residual block with conv_block=Conv1DBlock(
  (conv1d): Conv1d(704, 704, kernel_size=(3,), stride=(1,), padding=(1,))
  (norm): Normalization(
    (norm): BatchNorm1d(704, eps=1e-05, momentum=0.1, affine=True, track_running_stats=True)
  )
  (act_func): GELU(approximate='none')
), feature_block=MHABlock(
  (mha): MultiheadAttention(
    (out_proj): NonDynamicallyQuantizableLinear(in_features=704, out_features=704, bias=True)
  )
  (fc): Linear(in_features=704, out_features=704, bias=True)
  (act_func): GELU(approximate='none')
)
2024-08-12 21:17:33,619 Conv1D block [3], with input_dim=704, output_dim=704
2024-08-12 21:17:33,662 Residual block with conv_block=Conv1DBlock(
  (conv1d): Conv1d(704, 704, kernel_size=(3,), stride=(1,), padding=(1,))
  (norm): Normalization(
    (norm): BatchNorm1d(704, eps=1e-05, momentum=0.1, affine=True, track_running_stats=True)
  )
  (act_func): GELU(approximate='none')
), feature_block=MHABlock(
  (mha): MultiheadAttention(
    (out_proj): NonDynamicallyQuantizableLinear(in_features=704, out_features=704, bias=True)
  )
  (fc): Linear(in_features=704, out_features=704, bias=True)
  (act_func): GELU(approximate='none')
)
2024-08-12 21:17:33,676 Conv1D block [4], with input_dim=704, output_dim=704
2024-08-12 21:17:33,704 Residual block with conv_block=Conv1DBlock(
  (conv1d): Conv1d(704, 704, kernel_size=(3,), stride=(1,), padding=(1,))
  (norm): Normalization(
    (norm): BatchNorm1d(704, eps=1e-05, momentum=0.1, affine=True, track_running_stats=True)
  )
  (act_func): GELU(approximate='none')
), feature_block=MHABlock(
  (mha): MultiheadAttention(
    (out_proj): NonDynamicallyQuantizableLinear(in_features=704, out_features=704, bias=True)
  )
  (fc): Linear(in_features=704, out_features=704, bias=True)
  (act_func): GELU(approximate='none')
)
2024-08-12 21:17:33,718 Conv1D block [5], with input_dim=704, output_dim=704
2024-08-12 21:17:33,748 Residual block with conv_block=Conv1DBlock(
  (conv1d): Conv1d(704, 704, kernel_size=(3,), stride=(1,), padding=(1,))
  (norm): Normalization(
    (norm): BatchNorm1d(704, eps=1e-05, momentum=0.1, affine=True, track_running_stats=True)
  )
  (act_func): GELU(approximate='none')
), feature_block=MHABlock(
  (mha): MultiheadAttention(
    (out_proj): NonDynamicallyQuantizableLinear(in_features=704, out_features=704, bias=True)
  )
  (fc): Linear(in_features=704, out_features=704, bias=True)
  (act_func): GELU(approximate='none')
)
2024-08-12 21:17:33,769 Conv1D block [6], with input_dim=704, output_dim=704
2024-08-12 21:17:33,800 Residual block with conv_block=Conv1DBlock(
  (conv1d): Conv1d(704, 704, kernel_size=(3,), stride=(1,), padding=(1,))
  (norm): Normalization(
    (norm): BatchNorm1d(704, eps=1e-05, momentum=0.1, affine=True, track_running_stats=True)
  )
  (act_func): GELU(approximate='none')
), feature_block=MHABlock(
  (mha): MultiheadAttention(
    (out_proj): NonDynamicallyQuantizableLinear(in_features=704, out_features=704, bias=True)
  )
  (fc): Linear(in_features=704, out_features=704, bias=True)
  (act_func): GELU(approximate='none')
)
2024-08-12 21:17:33,822 Conv1D block [7], with input_dim=704, output_dim=704
2024-08-12 21:17:33,858 Residual block with conv_block=Conv1DBlock(
  (conv1d): Conv1d(704, 704, kernel_size=(3,), stride=(1,), padding=(1,))
  (norm): Normalization(
    (norm): BatchNorm1d(704, eps=1e-05, momentum=0.1, affine=True, track_running_stats=True)
  )
  (act_func): GELU(approximate='none')
), feature_block=MHABlock(
  (mha): MultiheadAttention(
    (out_proj): NonDynamicallyQuantizableLinear(in_features=704, out_features=704, bias=True)
  )
  (fc): Linear(in_features=704, out_features=704, bias=True)
  (act_func): GELU(approximate='none')
)
